model/20/tcr_pmhc_model.pt (torch, 586101 bytes, 11 tensors)

module.pmhc_linear.0.weight f4 [1, 256]
0	0x3cc668f1	0.024219962
1	0x3c9543fc	0.018220894
2	0xbd4e2307	-0.050326373
3	0x3d269d66	0.04067745
4	0xbd547702	-0.051871307
5	0x3d1683a8	0.03674665
6	0x3bfcb35e	0.007711812
7	0xbc42fc36	-0.011900952
8	0xbac7df38	-0.001524902
9	0x3cc96f82	0.024589304
10	0xbc1edd2d	-0.009696287
11	0x3d691c65	0.056911845
12	0xbc853c33	-0.016264057
13	0x3d8467bd	0.06465099
14	0xbda57f5d	-0.08080933
15	0x3d5bfc81	0.053707603
16	0xbd975a83	-0.073903106
17	0xbb8cf7ae	-0.0043019867
18	0x3c679f1b	0.014137055
19	0xbd72e787	-0.059302833
20	0xbc301891	-0.010748045
21	0xbc733265	-0.014843558
22	0xbc8e0296	-0.017335217
23	0xbcc5a8d1	-0.02412835
24	0x3cc42c0a	0.02394678
25	0x3cf68abc	0.03009545
26	0xbc9e8de1	-0.019354763
27	0x3d0a7c62	0.033810027
28	0x3c96ddbf	0.018416284
29	0xbdc95b10	-0.09831822
30	0x3d4178f0	0.047234476
31	0x3cbac167	0.0227973
32	0x3deed5ec	0.11661896
33	0x3d24a899	0.04019985
34	0xbd3dcac5	-0.046335954
35	0x3c412357	0.011788211
36	0xbd3ecb5c	-0.046580657
37	0xbccd2ffc	-0.025047295
38	0xbd65f439	-0.056141112
39	0x3c9bffa8	0.019042805
40	0x3ca6d428	0.020364836
41	0x3cf15052	0.029457245
42	0xbd3692a0	-0.044573426
43	0xbd8703c5	-0.06592516
44	0x3cd6ea38	0.026234731
45	0x3da996fb	0.0828075
46	0xbc9e6916	-0.019337218
47	0x3d353dcc	0.044248387
48	0x3c83b7e1	0.016078891
49	0x3b453ff8	0.0030097943
50	0xbd591d56	-0.053006493
51	0x3d0c97c1	0.03432441
52	0x3db43c9a	0.08800621
53	0x3d329f30	0.043608844
54	0x3db8c00c	0.09021005
55	0xbbef2529	-0.007298131
56	0xbce9fd17	-0.028563065
57	0xbcf50ad6	-0.029912394
58	0xbd1c0376	-0.038089238
59	0x3d0facca	0.035076894
60	0x3d919180	0.0710783
61	0xbd38fa81	-0.045160774
62	0x3d4e8618	0.05042085
63	0x3c741299	0.014897012
64	0x3c80e00f	0.01573184
65	0x3d95d8c2	0.07316734
66	0x3d8a8095	0.06762806
67	0xbd953066	-0.07284622
68	0xbca21409	-0.019784944
69	0xbd06fe20	-0.032957196
70	0x3db3a104	0.08770946
71	0xbcde3bdd	-0.027128154
72	0xbc5beace	-0.013422681
73	0xbd0a4fdd	-0.03376757
74	0x3d8723c0	0.06598616
75	0x3c26ac9c	0.010172989
76	0xbd4a2ce3	-0.049359214
77	0xbc07ddfb	-0.00829267
78	0x3d0d3040	0.034469843
79	0x3d72a6eb	0.059241217
80	0xbd1dff69	-0.038573656
81	0xbd2e2860	-0.042518973
82	0x3c9c5d4f	0.019087462
83	0xbcdcacae	-0.026937809
84	0x3dc0a219	0.09405918
85	0x3d0b2f09	0.033980403
86	0x3d7d2082	0.06179858
87	0x3c4b5558	0.012410484
88	0x3d18eb82	0.037333973
89	0xba03212e	-0.00050021976
90	0xb9727649	-0.00023122983
91	0xbd308c0a	-0.0431023
92	0xbc8ecad6	-0.017430704
93	0xbcfb6027	-0.030685497
94	0xbdd64efd	-0.104642846
95	0x3d021550	0.031758606
96	0x3d2b667f	0.041845795
97	0xbc855ae5	-0.016278693
98	0xbe05e297	-0.13074718
99	0xbd0eac78	-0.034832448
100	0xbcb119e0	-0.021618783
101	0x3d8660cc	0.06561431
102	0x3afcd621	0.001928989
103	0xbcdaff6f	-0.026733128
104	0xbd61e27d	-0.055147637
105	0x3b362d51	0.0027798007
106	0xbc17fa11	-0.009275929
107	0xbc23ece8	-0.010005213
108	0xbd1239e0	-0.035699725
109	0xbd3c4ed0	-0.0459736
110	0xbd80b70e	-0.06284915
111	0xbb9b8601	-0.004746199
112	0xbb991656	-0.004671852
113	0x3df6e07e	0.12054537
114	0x3d180e25	0.037122864
115	0x3cefaf87	0.029258503
116	0xbdae4901	-0.08510018
117	0x3cfac05f	0.030609308
118	0xbd940cfa	-0.072290376
119	0xbd8f7cee	-0.0700625
120	0xbd922142	-0.0713525
121	0xbd1f69d5	-0.03891929
122	0x3d873a13	0.06602874
123	0xbdb514cc	-0.08841857
124	0xbc8f9d0c	-0.01753094
125	0xbd7b24a3	-0.061314236
126	0x3d8c5b1e	0.06853317
127	0xbc00f391	-0.007870571
128	0xbce3584f	-0.02775207
129	0x3d7f7c73	0.062374543
130	0x3b332c01	0.002733946
131	0x3dbfb3aa	0.0936044
132	0x3bfc41b9	0.0076982644
133	0x3c21b7d5	0.009870489
134	0x3d068c49	0.03284863
135	0x3d96df3c	0.07366797
136	0x3bac1c32	0.0052523846
137	0x3cdb2e00	0.026755333
138	0x3dd2dc22	0.10295893
139	0x3c7e57b2	0.015523838
140	0xbd9c7b47	-0.07640701
141	0xbd2ebd3f	-0.042660948
142	0xbdeb36f7	-0.11485093
143	0xbd5b8907	-0.053597476
144	0xbc885882	-0.016643766
145	0xbbd991f9	-0.0066397157
146	0x3dc06e32	0.09396018
147	0x3d8149f3	0.06312933
148	0x3d2a5682	0.041586407
149	0x3d03761d	0.032095063
150	0x3ce1ca94	0.027562417
151	0xbdcec565	-0.10096244
152	0xbc502f2d	-0.01270656
153	0xbcf6edc4	-0.030142672
154	0xbc40cb0a	-0.011767158
155	0x3d888bd4	0.06667295
156	0xbcd636ec	-0.026149236
157	0x3ddca19e	0.107730135
158	0x3d09e999	0.03367004
159	0xbb42a3b6	-0.002969963
160	0xbc1432f5	-0.009045352
161	0xbd48b5f8	-0.049001664
162	0x3cec07bd	0.028812284
163	0x3d14c610	0.0363217
164	0x3d56b592	0.052419253
165	0x3d364d2d	0.044507194
166	0xbd7e91f6	-0.062150918
167	0x3cdaec6d	0.026724065
168	0x3d231465	0.03981437
169	0x3c4eb439	0.012616211
170	0x3d85b35c	0.06528351
171	0x3d338942	0.04383207
172	0xbd090f45	-0.033461828
173	0x3d3304ae	0.043705635
174	0x3d66b487	0.056324508
175	0x3cc25248	0.023720875
176	0xbcc91ef4	-0.024550892
177	0xbd388c58	-0.045055717
178	0xbbd9dc75	-0.006648595
179	0x3d1019dc	0.03518091
180	0x3d295b9a	0.041347124
181	0x3d9ad622	0.07560374
182	0x3c90003d	0.017578239
183	0x3d8df687	0.06931787
184	0xbd2fa444	-0.042881265
185	0x3c9f4320	0.019441187
186	0xbc7ac6d5	-0.015306194
187	0xbd55b0b4	-0.05217047
188	0x3d09a52c	0.033604786
189	0xbcb80830	-0.022464842
190	0x3d42a31f	0.047518846
191	0xbc086ed2	-0.008327203
192	0x3d94e690	0.07270539
193	0x3d4079aa	0.046991028
194	0xbb9aa49b	-0.0047193295
195	0x3bef8832	0.007309937
196	0xbce71b83	-0.02821136
197	0x3dac446c	0.08411488
198	0xbd212c73	-0.03934903
199	0xb9741ecb	-0.00023281125
200	0x3e131f34	0.14367372
201	0x3c0fcdcf	0.008777096
202	0x3d5dc09d	0.05413877
203	0xbc53564c	-0.012898993
204	0xbb45a1e8	-0.0030156318
205	0xbd19d6ad	-0.037558246
206	0x3d5e0f34	0.054213718
207	0xbb51a737	-0.0031990537
208	0x3c3b6b4b	0.011439155
209	0xba7b6b0f	-0.0009590843
210	0xbd0110fb	-0.031510334
211	0xbb49fd84	-0.0030821273
212	0x3b8a8642	0.0042274306
213	0xbcaf67fe	-0.021411892
214	0xbd0e2e36	-0.03471204
215	0xbc6b7b27	-0.0143726235
216	0x3d4ab5a5	0.049489636
217	0xbd84b6d8	-0.06480187
218	0xbceda9f0	-0.029011697
219	0xbc7c41bc	-0.015396532
220	0x3d886bed	0.0666121
221	0xbdc8d1d8	-0.098056495
222	0x3c863544	0.01638282
223	0xbd708992	-0.058724947
224	0x3d3f0bdc	0.04664217
225	0xbd3de5b6	-0.046361648
226	0x3d63d7a5	0.055625577
227	0xbca04c50	-0.019567639
228	0x3d42231d	0.047396768
229	0xbcc4c0f3	-0.024017787
230	0x3d433f78	0.04766795
231	0xbd4db291	-0.050219122
232	0xbd0b8fc1	-0.03407264
233	0x3d0b2c50	0.033977807
234	0xbdd0384a	-0.10166986
235	0x3d241bb9	0.0400655
236	0xbb5db9d1	-0.003383268
237	0x3d567a9e	0.05236303
238	0x3c50fead	0.012756032
239	0x3ad04812	0.0015890619
240	0xbd0a09b0	-0.033700645
241	0x3c251024	0.010074649
242	0x3c6894e9	0.014195659
243	0x3ccf6784	0.025317915
244	0xbc2382c4	-0.009979907
245	0x3d55618d	0.052094985
246	0xbd60b040	-0.054855585
247	0xbce9eb64	-0.028554626
248	0xbd53e47b	-0.051731568
249	0xbd7400c8	-0.059571058
250	0xbd215044	-0.039383188
251	0xbd43b161	-0.047776584
252	0xbd9b1a21	-0.07573343
253	0x3da95f6b	0.08270153
254	0xbcedf9ff	-0.029049871
255	0x3db0d1e1	0.08633781

module.tcr_linear.0.weight f4 [1, 256]
0	0xbbafd881	-0.0053663854
1	0xbe20ad80	-0.15691185
2	0xbcd76664	-0.02629394
3	0xbb0945aa	-0.0020946064
4	0x3e12e5c3	0.1434546
5	0x3d2239e1	0.03960598
6	0xbd785c5e	-0.060634963
7	0x3d2c5257	0.042070713
8	0x3b875b49	0.004130755
9	0x3ce292ff	0.027657984
10	0x3d482121	0.04885972
11	0xbd067859	-0.032829616
12	0xbdc57bb2	-0.09642734
13	0xbe1d8c4e	-0.15385553
14	0x3cb31616	0.021861117
15	0x3dbe6ac8	0.09297711
16	0x3d5d5a59	0.05404124
17	0x3c3702f2	0.011170136
18	0xbbbea1ce	-0.0058176285
19	0xbd502587	-0.05081704
20	0x3d639a00	0.055566788
21	0x3c9918ee	0.018688645
22	0x3c9030c1	0.017601373
23	0x3d2c6404	0.04208757
24	0x3d21da51	0.039514843
25	0x3e05f632	0.13082197
26	0x3e28c434	0.16481096
27	0xbd94009c	-0.07226679
28	0xbcd4f30b	-0.025994798
29	0xbdc62e01	-0.09676743
30	0xbb88c431	-0.0041737785
31	0x3dda947c	0.106728524
32	0xbca70c80	-0.020391703
33	0xbd92b26a	-0.07162936
34	0x3c588069	0.013214209
35	0xbb6cd020	-0.0036134794
36	0x3e157ad9	0.14597644
37	0xbe31037e	-0.17286488
38	0xbd55dcc9	-0.05221251
39	0x3e11ba6f	0.14231275
40	0xbdf1e16c	-0.11810574
41	0xbb9bc56f	-0.0047537605
42	0x3d7115d0	0.058858693
43	0xbd81c791	-0.063368924
44	0x3d45dbad	0.048305202
45	0xbd61d9f1	-0.055139486
46	0xbd8331c8	-0.064059794
47	0xbd58cb35	-0.05292817
48	0x3da5c3fa	0.0809402
49	0x3cb138ef	0.021633593
50	0x3cc15cc6	0.023603808
51	0x3e3796d6	0.17928633
52	0x3c774b36	0.015093615
53	0x3bc5ac3a	0.006032494
54	0xbb4d8c19	-0.0031364022
55	0xbdb2acb3	-0.08724346
56	0xbca3854a	-0.019961018
57	0xbd5bc6db	-0.05365644
58	0xbdfc6d56	-0.12325542
59	0x3d94f39c	0.07273027
60	0xbe1614b4	-0.14656335
61	0x3cbd4bb1	0.023107382
62	0xbbfb5a0f	-0.007670648
63	0xbda064cc	-0.078317255
64	0x3d371b1d	0.04470359
65	0xbd624bcc	-0.055248067
66	0x3d32f190	0.043687403
67	0xbe0ef114	-0.13959152
68	0x3dc8cc5b	0.09804603
69	0xbd952e66	-0.072842404
70	0x3c635ea5	0.0138775455
71	0x3ce6ec3f	0.028188823
72	0x3dcaa2c6	0.09894328
73	0xbbf5746b	-0.0074906847
74	0xb99bf509	-0.0002974647
75	0xbd82fc51	-0.06395782
76	0x3cd250c6	0.025673281
77	0x3dcf4f61	0.10122562
78	0x3d2d1c6f	0.042263445
79	0x3bd976ca	0.006636475
80	0x3e0f642a	0.14003053
81	0xbc260b23	-0.010134491
82	0xbd9236be	-0.071393475
83	0xbd36ea56	-0.044657074
84	0xbdbaca7f	-0.09120654
85	0xbcd2d1ca	-0.0257348
86	0x3d0de8a7	0.034645703
87	0x3d93666d	0.071972705
88	0xbe160a33	-0.14652328
89	0xbcb9b76e	-0.022670474
90	0xbd5532af	-0.05205029
91	0xbce16be8	-0.027517274
92	0xbd06e9ce	-0.032937817
93	0x3d880c76	0.06643002
94	0x3d2ac2ae	0.041689567
95	0xbc5b6ae8	-0.013392188
96	0x3d993661	0.07481075
97	0xba858e7e	-0.0010189561
98	0xbd083136	-0.033250056
99	0x3e0de526	0.13856944
100	0x3d1ff656	0.039053284
101	0x3c9c4063	0.01907367
102	0x3b128385	0.0022356224
103	0xbd5c17a2	-0.053733476
104	0xbc458738	-0.012056164
105	0xbcb43b00	-0.02200079
106	0x3d499100	0.04921055
107	0xbd7fc27b	-0.06244133
108	0xbd4190b7	-0.04725715
109	0xbcc7b991	-0.024380477
110	0x3d06476c	0.032782957
111	0x3cf6c296	0.030122083
112	0x3d909865	0.07060317
113	0xbe0c6ee2	-0.13714173
114	0x3d8de0d8	0.06927651
115	0xbcf8bae7	-0.03036256
116	0xbc44d9ac	-0.012014788
117	0x3bcf81f9	0.0063326326
118	0xbcc6fed6	-0.024291437
119	0xbe4c1689	-0.19930471
120	0xbd6d3d91	-0.057920042
121	0x3deb4e5e	0.11489557
122	0x3cff7009	0.031181352
123	0x3d27466a	0.040838636
124	0xbdb5ee39	-0.08883328
125	0x3c27897a	0.010225648
126	0xbe13fb16	-0.1445125
127	0x3da6f554	0.081522614
128	0xbb277d7e	-0.0025556977
129	0xbd7ad333	-0.06123657
130	0xbdb65d2a	-0.089044884
131	0x3c1ff3dd	0.009762731
132	0x3e115927	0.14194165
133	0xbcf20483	-0.029543167
134	0xba87f9a6	-0.0010374084
135	0x3d1e3b99	0.038631056
136	0xbd98e411	-0.07465375
137	0x3de6a52f	0.11261975
138	0xbcacc453	-0.021089708
139	0x3da7b549	0.08188874
140	0x3d91dd54	0.07122293
141	0xbc86b6f8	-0.016444668
142	0xbc36f710	-0.011167303
143	0xbc9d0ece	-0.019172098
144	0x3df0b7e5	0.11753825
145	0x3bea78bc	0.007155506
146	0xbb9e4e2c	-0.004831096
147	0xbde797ba	-0.113082364
148	0x3c81a7a5	0.01582701
149	0xbd5bd1dc	-0.053666934
150	0x3db2a3f4	0.08722678
151	0xba843856	-0.001008759
152	0x3d0d09ed	0.034433294
153	0xbd90b887	-0.07066446
154	0xbd00ce04	-0.03144647
155	0xbda1f8b8	-0.079087675
156	0x3d81fc07	0.063468985
157	0xbd74e91f	-0.059792634
158	0x3cbd3a51	0.023099096
159	0xbd20f7a3	-0.039298665
160	0xbde5a574	-0.11213198
161	0x3d1778a1	0.036980275
162	0x3da967fa	0.08271785
163	0x3d6eecb2	0.0583312
164	0x3caea1ed	0.021317447
165	0x3cde18c1	0.027111413
166	0x3ceb5dd4	0.028731264
167	0xbbd42191	-0.006473728
168	0xbdfb66ed	-0.12275491
169	0xbd6aa421	-0.05728543
170	0x3d91e4e6	0.07123737
171	0x3dda8136	0.10669176
172	0xbce10805	-0.027469644
173	0x3d311fb0	0.04324311
174	0x3cb33038	0.021873578
175	0xbe894c30	-0.2681594
176	0xbd9b3e89	-0.07580287
177	0x3d5f7dfb	0.054563504
178	0xbde68256	-0.11255328
179	0xbdb72050	-0.0894171
180	0xbd83d459	-0.064369865
181	0xbcdfa20f	-0.027298955
182	0x3cec4ab5	0.028844217
183	0x3e3c97f7	0.18417345
184	0xbc9418c1	-0.01807821
185	0xbd7e3e46	-0.062071107
186	0xbc404868	-0.011736013
187	0xbb3bf814	-0.0028681802
188	0xbc1eea86	-0.009699469
189	0xbd8f2c0c	-0.06990823
190	0xbdc03485	-0.09385017
191	0x3d8287bc	0.063735455
192	0xbddbde8d	-0.107358076
193	0xbdf607cc	-0.12013206
194	0xbd5df11d	-0.05418502
195	0x3d1787d1	0.03699476
196	0xbc946292	-0.018113408
197	0x3d8f4691	0.06995881
198	0x3d40010d	0.046876002
199	0xbd0f7c42	-0.03503061
200	0xbceb58fb	-0.028728953
201	0x3c8efb7e	0.017453905
202	0x3d5cf5ea	0.05394546
203	0x3d0729c4	0.032998815
204	0x3c1e64e9	0.009667614
205	0x3d621e4b	0.05520467
206	0xbdda2df4	-0.10653296
207	0xbdf9e3d0	-0.12201655
208	0xbe01cbd7	-0.12675415
209	0x3dd11d89	0.102107115
210	0xbcf66045	-0.030075202
211	0x3dbadba9	0.09123928
212	0x3c82c9be	0.015965339
213	0xbc2640ed	-0.010147315
214	0xbce33c96	-0.02773885
215	0x3e042f5f	0.12908696
216	0xbd18a5fd	-0.037267674
217	0x3d98c91a	0.07460232
218	0x3bacc35c	0.005272312
219	0xbcd81a1b	-0.026379636
220	0xbe010bbd	-0.12602134
221	0x3e5db2c0	0.21650219
222	0xbd37040a	-0.044681586
223	0x3d790591	0.060796324
224	0xbcfc8529	-0.030825214
225	0xbd8dfa4d	-0.06932507
226	0xbc4b88c2	-0.012422742
227	0xbdbf65cc	-0.09345588
228	0xbc1c137d	-0.009526131
229	0xbd9bde41	-0.07610751
230	0x3de23dba	0.1104693
231	0x3d90e050	0.07074034
232	0x3c526d63	0.012843463
233	0x3d8d6b60	0.06905246
234	0xbdb14d6e	-0.08657347
235	0x3d18efb1	0.037337963
236	0x3d0219f0	0.031763017
237	0x3d8ec007	0.0697022
238	0x3d13a1aa	0.036042847
239	0xbd1325dc	-0.035924777
240	0xbd8ab171	-0.067721255
241	0xbcbe7a94	-0.02325181
242	0xbca9ba22	-0.020718638
243	0x3bf442a5	0.0074542337
244	0xbe6dfdd2	-0.23241356
245	0x3cdada2e	0.026715364
246	0x3d36feab	0.044676464
247	0xbb3f0f0d	-0.0029153258
248	0x3c7929c6	0.0152077135
249	0xbd2add46	-0.04171493
250	0x3d2fdde2	0.042936213
251	0x3d6fabd3	0.058513474
252	0x3c683d24	0.014174733
253	0xbb310c9f	-0.002701558
254	0x3cef5664	0.029215999
255	0xbc9d6030	-0.019210905

module._pmhc_linear.0.weight f4 [1, 54]
0	0xbd24f25e	-0.0402702
1	0x3d0bc706	0.03412535
2	0xbc58df96	-0.013236901
3	0xbd2faf0e	-0.042891555
4	0xbdd32e99	-0.10311622
5	0x3d6de151	0.058076207
6	0x3d161a1f	0.036646005
7	0x3cfe1c3d	0.031019324
8	0x3c77d98a	0.015127549
9	0xbc22f868	-0.00994692
10	0x3c3d9790	0.01157178
11	0x3d32991a	0.04360304
12	0x3dc5d4cb	0.09659728
13	0x3d8031ab	0.062594734
14	0xbc3e6738	-0.011621289
15	0xbd692149	-0.05691651
16	0x3d3ee051	0.046600644
17	0x3b132d69	0.0022457486
18	0x3cbd680d	0.023120904
19	0xbd637702	-0.055533417
20	0x3d344bb4	0.04401751
21	0x3d503d8c	0.050839946
22	0xbc92c026	-0.01791389
23	0xbd5ad287	-0.05342343
24	0xbd664e6c	-0.056227133
25	0x3e012397	0.12611233
26	0x3c25e84c	0.010126185
27	0x3dc8df8b	0.098082624
28	0xbdb05b81	-0.08611203
29	0xbd34453b	-0.044011336
30	0xbd38fc5f	-0.045162555
31	0x3d81593c	0.06315848
32	0xbd8d6034	-0.06903115
33	0xbc2d47cf	-0.0105762025
34	0xbdac3969	-0.084093876
35	0x3cf33058	0.029686138
36	0x3d19b1ae	0.037522964
37	0x3d9e23b4	0.077216536
38	0xbc01ea5e	-0.007929413
39	0xbc0fcc4a	-0.008776734
40	0x3d814062	0.06311108
41	0xbd3081cf	-0.043092545
42	0x3de81961	0.11332966
43	0xbb9570b3	-0.004560554
44	0x3ac169a3	0.0014756214
45	0x3b24168b	0.002503785
46	0xbc86d0e8	-0.016457036
47	0xbd277f1f	-0.040892716
48	0x3cddd3d6	0.02707855
49	0x3d508e29	0.050916824
50	0xbd648f78	-0.055800885
51	0xbe1f724e	-0.15570948
52	0x3bee0d10	0.0072647408
53	0x3c8acda7	0.016943766

module._tcr_linear.0.weight f4 [1, 30]
0	0x3dcd23e3	0.100166105
1	0xbd8a62c8	-0.06757122
2	0xbeb28898	-0.34869838
3	0xbc8623f7	-0.016374571
4	0x3d868334	0.06567994
5	0xbcf47d20	-0.02984482
6	0x3caa0933	0.02075634
7	0x3dfde611	0.12397397
8	0x3dc37128	0.09543067
9	0x3ce1b2ec	0.027551137
10	0x3d3241ae	0.04351967
11	0x3d2a92da	0.041643955
12	0x3dbad6d8	0.091230094
13	0x3dfa3535	0.1221718
14	0x3d2fac05	0.04288866
15	0x3e0614c3	0.13093857
16	0x3d9eb2c5	0.07748941
17	0x3d0dbdff	0.034605023
18	0x3dd6382a	0.10459931
19	0xbc7a376b	-0.015272002
20	0x3dc6bad4	0.097036034
21	0xbbf9dfec	-0.0076255705
22	0x3dd85d4c	0.1056467
23	0xbdd9bcf5	-0.10631744
24	0x3d5e181f	0.054222222
25	0xbda0d4ed	-0.07853112
26	0xbda44811	-0.08021558
27	0x3e0aab28	0.13541853
28	0x3cc57df6	0.024107914
29	0x3e363abc	0.17795843

module.dense.0.weight f4 [200, 596]
0	0xbb872e21	-0.004125372
1	0x3cb14691	0.021640094
2	0xbcf59936	-0.029980283
3	0xbc2e8b93	-0.010653394
4	0x3bbd679f	0.005780175
5	0xbbfc5a59	-0.0077012
6	0x3c82178d	0.01588037
7	0x3c49c093	0.01231398
8	0x3c839dcc	0.016066454
9	0xbd0f8bd2	-0.035045452
10	0x3ce8fa0a	0.02843954
11	0x3a9e37d6	0.0012071084
12	0x3c913ad7	0.017728252
13	0x3c87b927	0.01656778
14	0xbcb09c09	-0.021558778
15	0xbc968e6c	-0.018378459
16	0xbcc024cf	-0.023455052
17	0xbce06138	-0.027390108
18	0xbd2680d1	-0.040650193
19	0x3bd8d2d6	0.0066169305
20	0x3bb4f8f3	0.005522841
21	0xbcf337cc	-0.029689692
22	0x3c21c928	0.00987462
23	0xbd0cceb0	-0.0343768
24	0x3c8ec1fe	0.017426487
25	0xbd4841d1	-0.048890892
26	0xbd014633	-0.031561088
27	0x3ce73f97	0.028228564
28	0xbb41935e	-0.00295373
29	0x3b832f0e	0.004003412
30	0x3d3ae1da	0.045625545
31	0x3d4b6e66	0.04966583
32	0xbcf4b2cb	-0.029870411
33	0x3c026721	0.007959158
34	0x3a9918c4	0.0011680354
35	0x3cacf7e2	0.021114293
36	0x3d21c742	0.039496668
37	0xba24b787	-0.0006283451
38	0x3cc70cff	0.02429819
39	0x3ca550e3	0.020180171
40	0xbd3d00dd	-0.0461434
41	0x3c9c92bf	0.019112943
42	0x3c4fe541	0.012688936
43	0xbd32b13b	-0.04362605
44	0x3c9a85e6	0.018862676
45	0xbcd822de	-0.026383813
46	0x3d155d34	0.03646584
47	0xbcfa5b91	-0.03056124
48	0x3d4885e3	0.04895581
49	0x3d567c51	0.05236465
50	0xbc873b1d	-0.01650768
51	0x3c7f243a	0.015572602
52	0x3c924e0f	0.017859487
53	0x3c8c9e89	0.01716544
54	0xbc102c4a	-0.008799622
55	0x3cb4e705	0.022082815
56	0xbcc8a1f6	-0.024491291
57	0x3c9b5c72	0.01896498
58	0xbd28d5c6	-0.041219495
59	0xbbc34a32	-0.0059597725
60	0xbceaf1e8	-0.028679803
61	0xbd310701	-0.04321957
62	0x3c04bf22	0.00810221
63	0xbc65b3d1	-0.014019922
64	0xbc876a08	-0.016530052
65	0xbcb19f92	-0.021682534
66	0x3c5fac58	0.01365193
67	0x3baff768	0.0053700693
68	0x3b1e831d	0.0024187036
69	0xbc862430	-0.016374677
70	0xbca38235	-0.019959548
71	0xbd0b10d2	-0.033951588
72	0x3d1ff04b	0.03904752
73	0xbc070854	-0.008241732
74	0xbc3c90f8	-0.011509173
75	0xbc8642d0	-0.01638928
76	0xbced36e6	-0.028956842
77	0xbc3c2d4f	-0.011485412
78	0xbd1db05e	-0.038498275
79	0xbd0137cc	-0.031547353
80	0x398ddebe	0.00027059572
81	0x3d256f8d	0.040389586
82	0x3c3e8815	0.011629124
83	0xbc40039b	-0.01171961
84	0xbb47c74c	-0.003048378
85	0xbc11312e	-0.008861823
86	0x3c7e1b70	0.015509471
87	0x3b5a9c92	0.0033357483
88	0x3ac6dd36	0.0015172127
89	0x3c911773	0.017711377
90	0xbd31d8af	-0.043419536
91	0x3c5e2b00	0.013560057
92	0x3c8e1304	0.017343052
93	0xbb6b72ae	-0.0035926509
94	0x3c82e41e	0.015977915
95	0xbcab77bf	-0.020931123
96	0x3bffbba9	0.0078043533
97	0x3cab0750	0.02087751
98	0x3c9f5a3a	0.019452203
99	0x3bbf9bae	0.005847416
100	0x3c1efd94	0.009704012
101	0x3d270b6f	0.04078239
102	0xbc4d59d2	-0.012533622
103	0xbce359f5	-0.027752856
104	0x3c41eabd	0.011835751
105	0xbcdfe1ea	-0.027329404
106	0xbc4d9f92	-0.012550252
107	0x3d14095d	0.036141742
108	0x3b636bb2	0.0034701643
109	0xbd6e0b20	-0.05811608
110	0xbc321592	-0.010869401
111	0x3c77284c	0.015085291
112	0xbc6f3f2e	-0.014602466
113	0xbcaa75b3	-0.020808076
114	0xbc234055	-0.009964068
115	0x3cfe3cba	0.031034816
116	0xbbce30c3	-0.006292434
117	0xbbc37803	-0.0059652342
118	0xbcaf1b05	-0.021375189
119	0xbd0820a8	-0.03323427
120	0x3d41e6ed	0.04733937
121	0x3c3138fe	0.010816811
122	0x3c139f0c	0.009010088
123	0x3c70d58c	0.014699351
124	0x3c7dac8e	0.015483035
125	0x3d07ed61	0.033185367
126	0x3d038252	0.032106705
127	0xbb0bb8c3	-0.0021319843
128	0x3b23e108	0.0025005955
129	0x3c979736	0.01850472
130	0x3d1f3dc6	0.03887727
131	0xbcb33525	-0.021875927
132	0x3d110971	0.035409395
133	0x3c96fdd1	0.018431576
134	0x3c8152c6	0.01578654
135	0x3b908771	0.004410677
136	0x3ab3e515	0.0013724888
137	0xbcfc3169	-0.03078528
138	0x3bd25481	0.006418765
139	0x3d548f4e	0.05189448
140	0xbbe72547	-0.0070540044
141	0xbc275274	-0.010212529
142	0x3d23f5d4	0.04002936
143	0x3c8d21c5	0.017228017
144	0xbbfe6a3e	-0.00776413
145	0xbd46f986	-0.048577808
146	0xbbeef076	-0.007291849
147	0x3ce88589	0.028383987
148	0x3b0ef4dd	0.002181343
149	0x3d2a2b1e	0.041545026
150	0xbc8afb06	-0.0169654
151	0xbcc3bed2	-0.023894701
152	0x3d47dec2	0.048796423
153	0xbc8d4915	-0.017246762
154	0xbc2d1ea9	-0.010566392
155	0xbcc62dba	-0.024191726
156	0xbcfc1cb9	-0.030775415
157	0x3cacbb0d	0.021085287
158	0xbc1b33bd	-0.009472785
159	0x3d52d6d1	0.051474396
160	0xbd368a71	-0.04456562
161	0xbc858a71	-0.016301366
162	0xbd281473	-0.041035127
163	0x3cc0b3a7	0.023523165
164	0xbc304464	-0.010758493
165	0x3c63d808	0.013906486
166	0xbb29c395	-0.002590393
167	0xbc23b01d	-0.009990719
168	0xbcedd88b	-0.02903392
169	0xbccbc643	-0.024874812
170	0xbbfff9f2	-0.007811778
171	0x3d5442dd	0.05182158
172	0x3d0db308	0.034594566
173	0xbd3ac550	-0.045598328
174	0xbbe475a9	-0.006972034
175	0x3c422da2	0.0118517
176	0x3cd8ae28	0.026450232
177	0xbc4e4f97	-0.012592218
178	0xbcc00ac5	-0.023442635
179	0xbc2d03f0	-0.010560021
180	0x3d467fac	0.0484616
181	0x3c850949	0.01623978
182	0xbb67ec6b	-0.0035388719
183	0x3c03aadf	0.008036344
184	0xbca0209c	-0.0195468
185	0xbc780dab	-0.015139977
186	0x3bc0f642	0.005888731
187	0x3c5c501f	0.013446837
188	0xbcb5824d	-0.022156859
189	0x3c1d7839	0.009611183
190	0xbbf20d91	-0.007386871
191	0x3cd2b331	0.02572021
192	0xbd007586	-0.03136208
193	0x3ba4a4e8	0.005024541
194	0x3c39b04d	0.011333537
195	0x3b2402ad	0.002502601
196	0x3d127522	0.035756238
197	0x3c10dea6	0.008842146
198	0xbca4bdea	-0.02011009
199	0x3cdbd3b5	0.026834348
200	0xbcd4244f	-0.02589622
201	0xb9f5480f	-0.0004678373
202	0xbbdc03d6	-0.0067143245
203	0x3d057caa	0.032589592
204	0xbd0b99e5	-0.034082312
205	0xbc961284	-0.018319376
206	0x3c3f1945	0.01166374
207	0x3cef0ddb	0.029181411
208	0x3c9053f9	0.017618166
209	0x3cf83ac0	0.030301452
210	0x3b43abd8	0.0029857066
211	0x3d2aada7	0.041669514
212	0xb9b4c448	-0.00034478516
213	0xbd33b7c5	-0.04387643
214	0xbcf1dd12	-0.02952436
215	0x3d2a4bf2	0.041576333
216	0x3ca018a2	0.019542996
217	0x3d43863d	0.04773544
218	0x3d2ac294	0.04168947
219	0x3c7cdd24	0.015433583
220	0x3cdd5b52	0.027021084
221	0xbc2dc31f	-0.0106056025
222	0xbc8eeb9e	-0.017446335
223	0x3d0474de	0.032338016
224	0x3cda14b0	0.026621193
225	0xbcde7006	-0.027153026
226	0x3cde73cb	0.027154824
227	0xbc8d86f2	-0.017276261
228	0x3ce97d42	0.02850211
229	0xbc54ebfa	-0.012995714
230	0xbc787342	-0.015164198
231	0x3d4d7990	0.05016476
232	0x3d11cf81	0.03559828
233	0x3d149d65	0.036282916
234	0x3d02896f	0.03186935
235	0x3c2559c2	0.010092201
236	0xbd4aecc7	-0.049542215
237	0xbc5bb2ac	-0.013409298
238	0x3b477f95	0.0030441035
239	0xbd1162ca	-0.035494603
240	0x3cd2a034	0.025711156
241	0xba869ccd	-0.0010270119
242	0x3cb4b687	0.022059692
243	0xbd0709a2	-0.03296817
244	0xbc53140a	-0.012883196
245	0xbd223503	-0.039601337
246	0x3d35bb07	0.044367816
247	0xbcb232cf	-0.021752743
248	0x3ba79e17	0.0051152813
249	0x3bc52735	0.0060166367
250	0xbcd5681d	-0.026050622
251	0x3cce9cbe	0.025221225
252	0x3d074b90	0.033031046
253	0xba8412d5	-0.0010076413
254	0xbd09cc60	-0.033642173
255	0x3a55eecb	0.0008160888

module.dense.0.bias f4 [200]
0	0xbcf98bd1	-0.030462177
1	0xbc5954bf	-0.013264834
2	0xbd377c95	-0.044796545
3	0xbc643189	-0.013927826
4	0xbd4aaf38	-0.049483508
5	0x3c251e09	0.010077962
6	0xbc52e5a2	-0.012872132
7	0xbd72abce	-0.059245877
8	0xbae9375d	-0.0017792989
9	0xbceaa983	-0.028645283
10	0xbd175862	-0.036949523
11	0xbd44b7bf	-0.048026796
12	0xbd07264a	-0.0329955
13	0xbd0dbdf2	-0.034604974
14	0xbd3f5d00	-0.04671955
15	0xbcffd178	-0.031227812
16	0xbb895bf0	-0.004191868
17	0xbcdbb3a1	-0.026819052
18	0x3d47f314	0.0488158
19	0xbc8c3ee6	-0.017119836
20	0xbc9a0639	-0.018801795
21	0x3b6a4999	0.0035749434
22	0x3c1c693e	0.009546576
23	0x3c9b19ac	0.01893314
24	0xbc66f5a5	-0.014096652
25	0xbd2ffbdc	-0.0429648
26	0x3cce32b1	0.025170656
27	0xbd48b2aa	-0.048998512
28	0xbc3838f5	-0.011244048
29	0x3c9dc192	0.01925734
30	0xbd3924f4	-0.045201257
31	0xbb756b94	-0.0037448155
32	0x3c7146b4	0.01472633
33	0x3b96a151	0.004596867
34	0xbb936fef	-0.0044994275
35	0xbcdd70f6	-0.027031403
36	0xbd145c2f	-0.036220726
37	0x3ccfa153	0.02534548
38	0xbd24b2cb	-0.040209573
39	0x3c804f89	0.015662925
40	0xbcd104c0	-0.02551496
41	0xbd29302f	-0.041305717
42	0x3b563d6f	0.0032690426
43	0xbcb3a1ba	-0.021927703
44	0xbd23877e	-0.039924137
45	0xbd12b06a	-0.035812773
46	0xbd177d47	-0.03698471
47	0x3cba6530	0.022753328
48	0xbd0bb3ee	-0.03410714
49	0xbb0f495b	-0.0021863792
50	0x3b842780	0.004033029
51	0xbca884fd	-0.020571226
52	0xbc748445	-0.014924114
53	0xbd2826b2	-0.041052528
54	0xbd0652d0	-0.03279382
55	0xbcba05cc	-0.022707842
56	0x3c51f4da	0.012814725
57	0xbcb8e8c5	-0.02257193
58	0xbd50f329	-0.051013146
59	0xbd0d7a5b	-0.034540515
60	0x3c6d56e1	0.014486046
61	0xbd6fa9db	-0.058511596
62	0xbd5d9c79	-0.054104302
63	0xbd529598	-0.051412195
64	0xbbae46f3	-0.0053185164
65	0xbcb37ed7	-0.021911068
66	0xbd2213aa	-0.039569534
67	0x3cab079b	0.02087765
68	0x3b9504c6	0.004547688
69	0x3d15920e	0.03651624
70	0xbcfa93b6	-0.030588012
71	0xbcc7f0dc	-0.024406843
72	0x3c056b52	0.008143263
73	0xbd3df8e8	-0.046379954
74	0xbd031edd	-0.032011855
75	0xbd246525	-0.04013552
76	0xbcf31087	-0.029670967
77	0x3c6d3fb3	0.014480519
78	0xbce5cf76	-0.028053027
79	0xbcf253ff	-0.029581068
80	0xbd09c423	-0.033634316
81	0xbc952c83	-0.018209701
82	0x3c52c386	0.012863999
83	0xbcd0e284	-0.025498636
84	0xbc33a3a2	-0.010964306
85	0xbbbf5278	-0.0058386885
86	0x3b4a209f	0.0030842198
87	0x3c22e485	0.009942179
88	0xbc2eae1b	-0.010661627
89	0x3ba70e5c	0.0050981473
90	0x3b2c8840	0.0026326329
91	0xbd33b4ce	-0.0438736
92	0xbd5f92b6	-0.054583274
93	0xbc6d7969	-0.0144942785
94	0x3d274071	0.04083294
95	0xbb05f176	-0.0020438111
96	0xbcfc2fcb	-0.030784508
97	0x3c4b8308	0.012421377
98	0x3c8e9dbe	0.017409202
99	0xbcceee46	-0.025260102
100	0xbc98c453	-0.018648302
101	0xbd0eeda3	-0.034894597
102	0xbd6ec3a8	-0.05829206
103	0xbcb134cc	-0.02163162
104	0xbd1615b2	-0.036641784
105	0xbd358e28	-0.044325024
106	0xbd070cc8	-0.032971174
107	0xbbdb3aa0	-0.0066903383
108	0x3bed709f	0.0072460915
109	0x3c85bbbe	0.016324874
110	0xbbfe9f48	-0.0077704526
111	0x3ba92247	0.005161557
112	0x3bb0a191	0.005390354
113	0xbd273da5	-0.040830273
114	0xbcb38230	-0.021912664
115	0xbd46a8e6	-0.048500918
116	0xbce5e316	-0.028062385
117	0x3be35ee6	0.006938803
118	0xbcba6b9e	-0.022756394
119	0x3be934b6	0.0071168793
120	0x3c93001c	0.017944388
121	0x39f11e67	0.00045989754
122	0x3c6bf69f	0.014402061
123	0x3c8dbc52	0.017301712
124	0xbb1b02ca	-0.0023652785
125	0xbd24b029	-0.040207062
126	0x3c9b5686	0.018962156
127	0xbc9ab644	-0.01888574
128	0xbcec190b	-0.028820535
129	0xbd1ab43d	-0.037769545
130	0xbc81318b	-0.015770694
131	0x3ce082e7	0.02740617
132	0x3c1dd675	0.00963365
133	0xbccd34ec	-0.02504965
134	0xbd7a6b49	-0.06113747
135	0x3c91aeae	0.01778349
136	0xbcc3f320	-0.023919642
137	0xbc1159ac	-0.008871477
138	0xba872f81	-0.001031384
139	0xbd37a386	-0.044833682
140	0xbd190836	-0.037361346
141	0xbc94ef2d	-0.018180454
142	0x3b7b445a	0.0038340301
143	0xbcc1d229	-0.023659782
144	0xbcb3d8e8	-0.021954015
145	0x3c02467f	0.007951378
146	0xbca8a601	-0.02058697
147	0x3be9624c	0.0071223136
148	0x3c67aa4c	0.014139723
149	0xbd0faf5a	-0.035079338
150	0xbb82638a	-0.003979151
151	0xbd582327	-0.0527679
152	0xbccc3f18	-0.02493243
153	0xbbb97b9a	-0.0056604864
154	0x3c17dfd1	0.009269671
155	0x3bd677e2	0.006545053
156	0xbbf5e2ac	-0.007503828
157	0xbd1e802b	-0.03869645
158	0xbd0fcecc	-0.035109326
159	0xbd1a849a	-0.037724115
160	0xbcd8c417	-0.02646069
161	0xbc0fa1c6	-0.008766597
162	0xbc691a0b	-0.0142274005
163	0xbd050a2e	-0.03248041
164	0xbd0ddeb2	-0.034636207
165	0x3d2ebaa3	0.04265846
166	0x3c3a7fe9	0.011383035
167	0xbb933037	-0.0044918316
168	0x3cc36ed8	0.023856565
169	0x3c0b49ba	0.0085014645
170	0xbb170a36	-0.0023046858
171	0xbd36feb2	-0.04467649
172	0x3cacccef	0.021093814
173	0x3c2fdc03	0.010733607
174	0xbcfe89b5	-0.031071523
175	0x3c98158e	0.018564966
176	0xbcb2afa8	-0.021812275
177	0xbd2286fe	-0.03967952
178	0x3cacb4ee	0.021082368
179	0xbd79a8e3	-0.06095208
180	0xbd366105	-0.04452612
181	0x3c5a5887	0.013326771
182	0xbce33fc9	-0.027740376
183	0xba8ef947	-0.0010908031
184	0xbd03c282	-0.03216792
185	0xbcef4d79	-0.029211747
186	0xbce0c50e	-0.027437713
187	0xbd02d354	-0.03193982
188	0xbb87a80f	-0.004139907
189	0xbd56b185	-0.05241539
190	0x3bf8487d	0.0075770007
191	0xbccffcf6	-0.025389176
192	0xbd55f2a9	-0.052233372
193	0xbcdd3e4d	-0.027007246
194	0x3c211329	0.009831228
195	0x3a41923a	0.0007384155
196	0x3d45dbdf	0.04830539
197	0xbd78d140	-0.06074643
198	0xbc08c037	-0.008346609
199	0x3bc012cf	0.005861617

module.dense.3.weight f4 [100, 200]
0	0x39bcd3c8	0.00036015944
1	0xbdb33f2a	-0.08752282
2	0x3c7d1568	0.015446998
3	0x3d34e69d	0.044165242
4	0x3c170374	0.009217132
5	0x3d5fb308	0.054614097
6	0xbc9b0f12	-0.018928085
7	0xbd6e9853	-0.058250736
8	0x3d28715a	0.041123725
9	0xbd2aef22	-0.04173196
10	0xbd8ff70a	-0.07029541
11	0xbc3e85e4	-0.011628602
12	0x3c6c0c72	0.014407264
13	0xbd8504fd	-0.06495092
14	0xbd81d511	-0.06339467
15	0xbb9b399d	-0.0047370926
16	0xbd86268c	-0.06550321
17	0x3d03b64b	0.03215627
18	0xb9fbc57e	-0.00048021594
19	0xbd8a13d8	-0.06742066
20	0x3d8fd19c	0.07022402
21	0x3d90baf4	0.070669085
22	0x3d877853	0.06614747
23	0x3c8dfbd4	0.017331995
24	0xbd824294	-0.06360355
25	0xbc7c1457	-0.015385709
26	0xbd0a8a26	-0.033823155
27	0xbc78d85a	-0.015188301
28	0x3d71293e	0.058877222
29	0x3cb2c1df	0.02182096
30	0xbc695b93	-0.014243024
31	0xbd3fed4b	-0.04685716
32	0xbd058cc3	-0.032604944
33	0x3cf7e6ab	0.030261358
34	0x3c18947b	0.009312744
35	0xbc6bf33a	-0.014401251
36	0x3d588c86	0.05286839
37	0x3d9b3957	0.07579296
38	0xbcef667c	-0.029223673
39	0x3ca28d16	0.019842666
40	0x3cacab3a	0.021077741
41	0xbd220ab9	-0.039561007
42	0x3d0ca6dc	0.034338817
43	0x3cd80104	0.026367672
44	0xbd51158f	-0.05104595
45	0x3a80632b	0.0009795179
46	0x3cab10ea	0.020882089
47	0x3d36b7eb	0.04460899
48	0xbd8c1a9e	-0.06841014
49	0x3d286721	0.041113976
50	0x3ca09d84	0.01960636
51	0x3a4413fa	0.00074797834
52	0xbcc96f24	-0.024589129
53	0xbd800642	-0.062511936
54	0x3d65c1ad	0.056092907
55	0x3d64779b	0.055778127
56	0x3d94b664	0.07261351
57	0xbc832c1a	-0.01601224
58	0x3dbbdab3	0.09172573
59	0xbd9c66d3	-0.076368
60	0xbd898252	-0.0671431
61	0xbd18cb9d	-0.037303556
62	0x3c8eddd1	0.017439755
63	0x3c5b9044	0.013401095
64	0xbcef9777	-0.029247029
65	0xbd4834c6	-0.048878454
66	0xbd46072f	-0.048346695
67	0x3d0e7721	0.03478158
68	0xbd27ef2c	-0.040999576
69	0x3c5115c4	0.012761537
70	0xbc9721eb	-0.01844879
71	0xbd9a1c25	-0.075248994
72	0x3ce5517e	0.02799296
73	0xbc1bcc0b	-0.009509097
74	0xbc979765	-0.018504808
75	0x3cc703e8	0.024293855
76	0x3d3510bb	0.04420541
77	0xbd0e5e6c	-0.034758016
78	0xbdb02e2a	-0.08602555
79	0xbd155536	-0.036458217
80	0xbb118ed4	-0.0022210376
81	0x3dd2344a	0.102638796
82	0xbd626268	-0.05526963
83	0xbd02eda5	-0.031964917
84	0x3d2b9c1b	0.04189692
85	0xbc36bb2d	-0.011153025
86	0x3e1e132e	0.15437004
87	0x3d349e5e	0.044096343
88	0x3d5076e8	0.050894648
89	0xbd0d18f8	-0.03444764
90	0xbbad233c	-0.0052837413
91	0x3b85ad3f	0.0040794904
92	0x3c831660	0.01600188
93	0x3c10a7e5	0.008829092
94	0x3dfacbb9	0.12245888
95	0xbcc0c12d	-0.023529613
96	0xbc8b1c5f	-0.016981302
97	0x3d4bd2d4	0.04976161
98	0x3d3c540a	0.045978583
99	0xbad068b9	-0.001590035
100	0xbb8bfce5	-0.0042720907
101	0x3d509d09	0.05093101
102	0x3d16ac98	0.036785692
103	0xbb4d1827	-0.0031294913
104	0xbd08f104	-0.033432975
105	0x3d7f1018	0.062271208
106	0xbd5aa8f7	-0.053383794
107	0xbd3340a1	-0.043762807
108	0xbd9c8993	-0.07643428
109	0x3df7cf1f	0.12100052
110	0xbd7c3a63	-0.06157912
111	0x3a9e95cc	0.0012099086
112	0xbcdbcc51	-0.026830824
113	0x3c8f62e2	0.017503206
114	0xbcc50a7a	-0.024052847
115	0x3ccdb343	0.025109893
116	0xbb92b1f6	-0.004476781
117	0x3ce9b321	0.028527798
118	0xbcb98fc8	-0.022651568
119	0xbcb08612	-0.021548305
120	0xbca395f2	-0.01996896
121	0x3d51c112	0.051209517
122	0xbd0b4169	-0.033997927
123	0xbdddb5b2	-0.10825671
124	0x3d7ccb6a	0.06171743
125	0x3d2072c0	0.039171934
126	0x3cc23fda	0.023712087
127	0x3d2d8100	0.042359352
128	0xbcc5f0fb	-0.02416276
129	0x3c11c162	0.008896204
130	0x3d66a5b4	0.05631037
131	0xbc4df551	-0.012570695
132	0xbc87059a	-0.016482163
133	0xbcad7ccb	-0.02117767
134	0x3dbedafd	0.093191124
135	0x3d888ffe	0.06668089
136	0x3bc3290d	0.0059558214
137	0xbd75d596	-0.060018145
138	0x3cd7b29f	0.02633029
139	0xbd689380	-0.056781292
140	0x3d08f163	0.03343333
141	0xbcafb1b6	-0.021447044
142	0xbd014a44	-0.031564966
143	0xbdd85cc6	-0.1056457
144	0x3c645cd3	0.013938147
145	0x3bf5b309	0.0074981493
146	0x3b084d8c	0.0020798175
147	0xbccd212f	-0.025040237
148	0x3b83f0ad	0.0040264935
149	0xbc2ede4f	-0.01067312
150	0x3c2da8d8	0.0105993375
151	0x3ca73406	0.020410549
152	0x3d3153f8	0.04329297
153	0xbd056cf6	-0.032574616
154	0xbc8618fb	-0.016369333
155	0x3d1fedf7	0.0390453
156	0xbd9fd59d	-0.078044154
157	0xbcc2104e	-0.023689415
158	0xbd058216	-0.032594763
159	0xbb9d5ebe	-0.004802554
160	0x3dac31f6	0.08407967
161	0x3dad4292	0.08459963
162	0xbd2b3085	-0.04179432
163	0x3d1d91ce	0.03846913
164	0xbd592f35	-0.053023536
165	0x3d65c960	0.05610025
166	0xbba16412	-0.0049252594
167	0xbc2dcaa4	-0.010607395
168	0xbce3a14b	-0.027786871
169	0xbd8608b8	-0.06544632
170	0xbcf85888	-0.030315652
171	0xbccb1d11	-0.024794133
172	0xbd13e3e3	-0.036106
173	0xbbe0d230	-0.006860994
174	0xbcf54799	-0.029941367
175	0x3d37d127	0.044877198
176	0x3b24104e	0.0025034132
177	0xbccf1386	-0.025277864
178	0x3c094608	0.008378513
179	0x3ac2649b	0.0014831008
180	0xbd451559	-0.04811606
181	0xbd230969	-0.039803896
182	0xbd09ebe9	-0.033672247
183	0xbd2409c6	-0.040048383
184	0xbd054250	-0.032533944
185	0x3aea9e23	0.0017899912
186	0xbd949298	-0.07254523
187	0xbb88e184	-0.004177274
188	0xbd07f22b	-0.033189934
189	0x3cb739f0	0.022366494
190	0xbb067c9a	-0.0020521046
191	0xbd6c85b9	-0.057744715
192	0xbd134fdc	-0.03596483
193	0xbd7eeb0b	-0.062235873
194	0xbc2a44be	-0.010392366
195	0x3b29bf56	0.0025901399
196	0xbc2a2896	-0.010385653
197	0x3d743e13	0.05962951
198	0xbd3630fb	-0.044480305
199	0x3b8b3dbf	0.004249304
200	0x3d827ced	0.06371484
201	0x3bc7ff3b	0.006103424
202	0xbd12f642	-0.03587938
203	0xbd169e34	-0.036771968
204	0x3cd97244	0.026543744
205	0xbc0e097f	-0.008669256
206	0xbd9ee2c2	-0.07758094
207	0x3ce16887	0.027515663
208	0xbd5c18d6	-0.053734623
209	0x3be4e7c2	0.0069856355
210	0xbd8a87b7	-0.06764167
211	0x3d0e5218	0.03474626
212	0x3d87a596	0.0662338
213	0xbdc50328	-0.09619743
214	0x3bf80db9	0.0075699952
215	0xbb8c1404	-0.004274847
216	0xbb821470	-0.0039697215
217	0x3c68583d	0.014181194
218	0xbd8688ad	-0.065690376
219	0x3a9f87c3	0.0012171197
220	0xbb1aa973	-0.0023599535
221	0x3d667800	0.056266785
222	0xbd7a8a92	-0.061167307
223	0xbb4edc33	-0.0031564354
224	0x3d875ec6	0.066098735
225	0xbc28bb8f	-0.010298624
226	0xbc0e94db	-0.008702482
227	0xbb703f41	-0.0036658796
228	0x3d05db2b	0.032679718
229	0x3c1ad80b	0.009450923
230	0x3d71d770	0.059043348
231	0x3bb84567	0.005623508
232	0x3d4f07ba	0.050544478
233	0x3bc6339e	0.0060486337
234	0x3d0007b7	0.031257357
235	0xbcb1079a	-0.02161007
236	0x3d5dbff7	0.05413815
237	0x3d5ef971	0.054437105
238	0xbcde9876	-0.027172308
239	0xbca69a1e	-0.02033716
240	0xbd42fda4	-0.04760517
241	0xbd442ebd	-0.047896136
242	0xbd408088	-0.046997577
243	0x3cb09a35	0.021557907
244	0xbc93ef3f	-0.018058417
245	0x3d5e3951	0.05425388
246	0xbcc66e8a	-0.024222631
247	0x3cb1344c	0.021631382
248	0xbd9c3418	-0.076271236
249	0x3d58b1f7	0.052904096
250	0xbcff2f0d	-0.031150365
251	0x3d021c3e	0.031765215
252	0xbcf60146	-0.030029904
253	0x3cc577d7	0.024104996
254	0x3c434c03	0.011919978
255	0xbd53e521	-0.051732186

module.dense.3.bias f4 [100]
0	0x3d021793	0.031760763
1	0x3cea38ac	0.028591476
2	0x3dae66a7	0.08515673
3	0x3d80bc64	0.06285933
4	0x3d884e9c	0.066556185
5	0x3d062a14	0.032754973
6	0x3d112170	0.03543228
7	0xba4658cd	-0.0007566333
8	0x3ca7e772	0.020496104
9	0x3da8d048	0.082428515
10	0x3d883842	0.06651355
11	0x3d8e55ea	0.069499806
12	0x3cf097df	0.029369293
13	0x3d60ec11	0.05491263
14	0x3d04f993	0.032464575
15	0x3d8a7c77	0.06762021
16	0x3d64dc65	0.055874247
17	0x3d48f2c2	0.049059637
18	0x3dbea0ee	0.09308039
19	0x3ca599c2	0.020214919
20	0x3dcc5ac4	0.0997825
21	0x3d147691	0.036245886
22	0xba8f9045	-0.001095303
23	0x3da173d7	0.07883423
24	0x3d163e73	0.03668065
25	0x3d7e366c	0.06206362
26	0x3db148fb	0.08656498
27	0x3ca16f35	0.019706348
28	0x3d77ab10	0.060465872
29	0x3c96f228	0.018426016
30	0x3cb00e1f	0.021491108
31	0x3d15543e	0.036457293
32	0x3c6bc6fd	0.014390704
33	0x3d7a9441	0.061176542
34	0x3cac73ce	0.021051314
35	0x3c227df7	0.009917728
36	0x3cd3ac25	0.02583892
37	0x3d13fbcf	0.036128815
38	0x3d0f3604	0.034963623
39	0x3c960c72	0.018316481
40	0x3c172976	0.009226194
41	0x3c007176	0.007839551
42	0xbc48817b	-0.012237902
43	0x3c184032	0.009292649
44	0x3d60cbaf	0.054881748
45	0x3d9c93cd	0.07645378
46	0xbd8a0b48	-0.06740433
47	0x3d6237f5	0.055229146
48	0x3d8c74f6	0.06858246
49	0x3d53b64d	0.051687527
50	0x3c06e3a8	0.008232988
51	0x3d196773	0.037452172
52	0x3d1f165c	0.038839683
53	0x3d4b1dba	0.049588896
54	0x3dbe001f	0.09277367
55	0x3d9ba7bb	0.076003514
56	0x3d1688fa	0.036751725
57	0x3d8addc4	0.0678058
58	0x3d31d310	0.043414176
59	0x3c7f7183	0.015591028
60	0xbd114ae2	-0.035471804
61	0x3d653b93	0.055965018
62	0x3d4bfaf5	0.04979988
63	0x3d98eca9	0.07467014
64	0x3db2bed0	0.08727801
65	0x3dcb7119	0.09933681
66	0x3d97d183	0.07413008
67	0x3cbdd122	0.023171011
68	0xbe707eda	-0.2348589
69	0x3dbb80f0	0.09155452
70	0x3daade31	0.08343161
71	0x3d775bd4	0.06039031
72	0x3d9eb783	0.07749846
73	0x3d71d52c	0.059041187
74	0xbd0d7ecb	-0.034544747
75	0xbd66573b	-0.056235533
76	0x3d645ae1	0.05575073
77	0x3d0fcc2d	0.035106827
78	0x3d4f607e	0.05062913
79	0x3cf1c108	0.02951099
80	0x3cffdb6a	0.031232554
81	0x3dadea01	0.08491898
82	0x3cbae231	0.022812935
83	0x3d88fc0e	0.066887006
84	0x3d857786	0.06516938
85	0x3d9a2125	0.07525853
86	0x3d8e670f	0.069532506
87	0xbd6b4aff	-0.05744457
88	0x3c5d86f4	0.013520945
89	0x3d6443d5	0.055728752
90	0x3d42e772	0.047584005
91	0xbe105c57	-0.14097725
92	0x3d736889	0.059425864
93	0x3cd23ade	0.025662836
94	0x3c2c67cb	0.010522793
95	0x3cc7b754	0.02437941
96	0x3c0958d5	0.008382996
97	0x3d6eb77b	0.05828045
98	0xbd8e51e3	-0.069492124
99	0xbde8a086	-0.113587424

module.dense.6.weight f4 [50, 100]
0	0x3ca45e59	0.02006452
1	0x3dac6be3	0.08419015
2	0xbe2c8785	-0.16848572
3	0xbd4af38a	-0.049548663
4	0x3d364627	0.044500496
5	0x3d30ac09	0.043132816
6	0x3d367807	0.04454806
7	0x3cfe385c	0.031032734
8	0x3d6d36ca	0.05791358
9	0xbd44ac2a	-0.04801575
10	0x3d9a1361	0.075232275
11	0xbdc53147	-0.096285395
12	0x3d6b95ed	0.057516027
13	0xbc0bf2b1	-0.008541749
14	0xbb837d2f	-0.004012726
15	0x3ca0966f	0.019602982
16	0xbe7e9343	-0.24860863
17	0x3d66f2b1	0.056383792
18	0xbb29a584	-0.0025886009
19	0x3c801bf7	0.015638335
20	0x3d833e72	0.06408395
21	0x3d92d2b4	0.07169095
22	0x3d6d8544	0.05798842
23	0x3c85b2d2	0.01632062
24	0x3c41b44a	0.011822769
25	0xbe428258	-0.18995035
26	0xbe2cec2e	-0.1688697
27	0x3cc4ba5c	0.024014644
28	0xbe30330b	-0.17206971
29	0xbbb7b8af	-0.005606733
30	0xbb6f4f3f	-0.003651574
31	0xbc97c5b9	-0.018526899
32	0xbc58d44d	-0.01323421
33	0xbdfd1c7b	-0.12358948
34	0xbd8817e9	-0.066451855
35	0xbca1fa1c	-0.019772582
36	0xbd34ebf0	-0.04417032
37	0xbbdd819d	-0.006759836
38	0xbc76ae5a	-0.015056217
39	0xbb1d440a	-0.0023996853
40	0x3cccd0db	0.025001934
41	0x3c8e4c2b	0.017370304
42	0xbd648d2b	-0.05579869
43	0x3da25b12	0.079275265
44	0xba2d9489	-0.000662156
45	0xbb638582	-0.0034717028
46	0x3d796653	0.0608886
47	0xbd85507b	-0.06509491
48	0xbe7b487a	-0.24539366
49	0xbd99823c	-0.07495543
50	0x3dadd608	0.08488089
51	0x3db50848	0.0883947
52	0x3d95d4b1	0.07315958
53	0xbdf3f01b	-0.11911031
54	0xbe79001d	-0.2431645
55	0x3cc00e01	0.023444178
56	0x3c737949	0.01486046
57	0xbe31f32d	-0.1737792
58	0xbe6ef266	-0.23334655
59	0xbd915d22	-0.07097842
60	0x3debf604	0.11521533
61	0xbe34273a	-0.17593089
62	0xbd4cb336	-0.049975596
63	0xbde1884f	-0.11012327
64	0xbd7f118f	-0.062272605
65	0xbd01d57e	-0.031697743
66	0xbced137f	-0.02893996
67	0x3d238bef	0.039928373
68	0x3d9821db	0.074283324
69	0xbda346e4	-0.07972506
70	0x3df6b22e	0.12045704
71	0xbd19f1eb	-0.037584227
72	0xbcffb97c	-0.031216376
73	0xbe070243	-0.13184457
74	0xbcd2935e	-0.025705036
75	0x3d179047	0.037002828
76	0xbe2fbc3e	-0.17161652
77	0xbc969d5a	-0.018385578
78	0x3dde0ca7	0.10842257
79	0x3d842418	0.06452197
80	0xbc3c4cde	-0.011492936
81	0xbdc3706e	-0.09542929
82	0xbd175776	-0.036948644
83	0xbe6698d4	-0.22519237
84	0xbe1b7801	-0.15182497
85	0xbdb68ce8	-0.089135945
86	0xbbb508f2	-0.005524748
87	0x3cbd2c23	0.023092335
88	0xbc4e4305	-0.012589221
89	0x3d4a4065	0.049377818
90	0x3b07f1c2	0.0020743464
91	0xbcb38c3c	-0.021917455
92	0xbdac0fc9	-0.08401448
93	0x3c14f85e	0.0090924185
94	0xbc8cabaa	-0.0171717
95	0x3c9276bd	0.017878884
96	0x3c9b07d9	0.01892464
97	0xbd43a08d	-0.047760535
98	0xbc3d406d	-0.011551005
99	0x3d0cef92	0.03440816
100	0x3de38ce5	0.11110858
101	0xbcab0847	-0.02087797
102	0xbdc071a5	-0.09396676
103	0x3d4b11dd	0.049577583
104	0x3de5dd66	0.11223869
105	0x3d39108d	0.0451818
106	0x3d24cb2e	0.04023283
107	0xbdb69bc9	-0.089164324
108	0x3b3825fc	0.0028098812
109	0x3c4938ff	0.012281655
110	0x3cfe1120	0.031014025
111	0xbe129da6	-0.1431795
112	0x3db84144	0.089968234
113	0x3c119c25	0.008887325
114	0x3ca5a598	0.020220563
115	0x3ce9c3cb	0.028535744
116	0xbe475c6d	-0.19468851
117	0x3b8c92bc	0.004289953
118	0x3d284f45	0.041091222
119	0x3d6274ef	0.055287298
120	0x3db70281	0.089360245
121	0xbc009dcd	-0.007850123
122	0x3d385127	0.044999268
123	0x3dbdbb44	0.09264234
124	0x3cc436e3	0.023951953
125	0xbe2895b6	-0.1646336
126	0xbe8bd19c	-0.27308357
127	0xbd1b2160	-0.037873626
128	0xbdbf2fc4	-0.093352824
129	0xbc169a1c	-0.009192016
130	0x3c893ee7	0.016753627
131	0x3d4fc5d2	0.050725766
132	0x3d1c6741	0.038184408
133	0xbe314fa7	-0.17315541
134	0xbccbe427	-0.024889065
135	0x3c368cc0	0.011141956
136	0xbc8c1427	-0.017099453
137	0x3d891772	0.06693925
138	0x3db1b15d	0.086764075
139	0x3cc2901b	0.023750355
140	0x3acb34ed	0.0015503444
141	0x3b013d15	0.0019720246
142	0xbe017595	-0.1264251
143	0x3d246070	0.040131032
144	0x3e08af83	0.13348202
145	0x3de60e7c	0.112332314
146	0xbd356a5e	-0.044290893
147	0x3daccd7e	0.08437632
148	0xbdbd0a19	-0.092304416
149	0xbe432ee2	-0.19060853
150	0x3de28d1c	0.11062071
151	0x3c93c894	0.018039979
152	0xbd76b6e7	-0.060233023
153	0xbe856d28	-0.26059842
154	0xbd819eb5	-0.06329099
155	0x3c943cc6	0.018095385
156	0xbb391bcd	-0.002824533
157	0xbd923911	-0.07139791
158	0xbe00f2fb	-0.1259269
159	0xbde087f1	-0.10963429
160	0x3daa139c	0.083045214
161	0xbe21c798	-0.15798795
162	0x3db0583e	0.08610581
163	0xbdac3a1f	-0.08409523
164	0x3d95bcc1	0.073113926
165	0xbd1b146f	-0.037861284
166	0xbe01c3a9	-0.12672295
167	0x3e0489f0	0.12943244
168	0x3cb4b7ea	0.022060353
169	0xbd90c010	-0.07067883
170	0x3c96036a	0.018312175
171	0xbda80a83	-0.0820513
172	0x3d911699	0.07084388
173	0xbe49d5d6	-0.19710478
174	0x3d4575e7	0.048208144
175	0xbd2c189f	-0.042015668
176	0xbe1b95b2	-0.15193823
177	0x3ca8de62	0.020613853
178	0xbc98a06d	-0.018631184
179	0x3d9590b6	0.07302992
180	0xbabb1726	-0.0014273867
181	0xbdcb96a9	-0.099408455
182	0xbda3ca40	-0.079975605
183	0xbe46099a	-0.193396
184	0xbe20f0ca	-0.15716854
185	0xbe206054	-0.15661746
186	0xbc875280	-0.016518831
187	0x3b7684c7	0.0037615763
188	0x3d0ce19f	0.034394857
189	0xbd1261a1	-0.035737637
190	0x3bfec610	0.0077750757
191	0x3d3eaacc	0.046549603
192	0xbe742985	-0.23843963
193	0x3c90a66a	0.017657477
194	0xbcf9fb70	-0.030515403
195	0x3da473a6	0.08029871
196	0xbcd757a8	-0.026286915
197	0x3db45ee3	0.08807161
198	0x3d54f1d6	0.051988445
199	0xbd08143d	-0.033222426
200	0x3bdab050	0.00667385
201	0x3b6e5180	0.0036364496
202	0x3bba125d	0.0056784586
203	0xbd32cfeb	-0.043655317
204	0xbbcb91a8	-0.006212432
205	0xbd87fa73	-0.06639566
206	0xbd11ecd8	-0.035626262
207	0x3d6c4252	0.057680435
208	0xbd5fdb63	-0.054652583
209	0x3caa73e3	0.020807212
210	0xbc39cd96	-0.011340519
211	0xbd0f40f7	-0.034974065
212	0xbd012eba	-0.031538703
213	0x3c2e2318	0.010628484
214	0xbdaf5d81	-0.08562756
215	0x3c91ceac	0.017798744
216	0x3d4e2012	0.050323553
217	0xbe08ec60	-0.1337142
218	0xbd1d3e55	-0.038389523
219	0xbddca6c7	-0.10773998
220	0xbcb30a0e	-0.02185538
221	0xbde4faec	-0.11180672
222	0xbdd3d55b	-0.10343429
223	0xbd5fa6a0	-0.054602265
224	0xbd1add7d	-0.037808884
225	0xbd3a34db	-0.045460563
226	0x3d2bc0c2	0.041931875
227	0xbd555f9b	-0.05209313
228	0xbd5ae4cb	-0.05344085
229	0xbd64b500	-0.055836678
230	0xbe1923cd	-0.14955063
231	0x3c504202	0.01271105
232	0xbe104e9c	-0.14092487
233	0x3cb0f948	0.021603242
234	0xbdf1f8fa	-0.11815067
235	0xbdfa02e6	-0.12207584
236	0xbdb16e79	-0.08663649
237	0xbd563858	-0.052299827
238	0xbd97dbf5	-0.07415
239	0xbcfb035a	-0.030641247
240	0xbe7130cd	-0.23553772
241	0xbe409112	-0.1880534
242	0x3dea9a92	0.11455263
243	0xbdba72d1	-0.09103931
244	0x3bc52984	0.006016912
245	0xbd30aa42	-0.04313112
246	0xbbd3cb6c	-0.0064634588
247	0x3d4ef8d1	0.05053026
248	0xbc6dd1e2	-0.014515372
249	0x3be5c916	0.0070124967
250	0xbd48bc40	-0.049007654
251	0xbc654c8a	-0.013995299
252	0xbcb8ff65	-0.02258272
253	0x3c922e6c	0.017844401
254	0xbcf24e27	-0.029578282
255	0xbc63ab22	-0.013895782

module.dense.6.bias f4 [50]
0	0x3e67fd81	0.22655298
1	0x3e262ecd	0.1622879
2	0x3e1849c3	0.14871888
3	0x3e0eea9e	0.13956687
4	0x3e5c3afd	0.21506877
5	0x3e351110	0.1768229
6	0x3de6dced	0.11272607
7	0x3e1edca3	0.15513854
8	0x3e1f0051	0.15527464
9	0x3e26d3d3	0.16291742
10	0x3e56136a	0.20905843
11	0x3d852ada	0.06502314
12	0x3e0bf64f	0.13668178
13	0x3e35c954	0.17752582
14	0x3e0af78e	0.13570997
15	0x3e2123b2	0.15736273
16	0x3e24a6f6	0.16079316
17	0x3e58cdb6	0.21172222
18	0x3e5a8831	0.21341015
19	0x3e2b3009	0.16717543
20	0x3e3fb5b8	0.18721664
21	0x3e43ef87	0.19134341
22	0x3e272540	0.16322803
23	0x3de00454	0.109383255
24	0x3e2fefcd	0.1718132
25	0x3e2006f4	0.15627652
26	0x3e1d1e1d	0.15343519
27	0x3e298312	0.16553906
28	0x3e1b312c	0.15155476
29	0x3e0af2bf	0.13569163
30	0x3e7751ad	0.2415225
31	0x3e586c76	0.21135125
32	0x3e2b7b5a	0.16746274
33	0x3e64946a	0.2232224
34	0x3e1b0f8e	0.15142652
35	0x3e108c2f	0.14115976
36	0x3de4b73f	0.11167764
37	0x3e6811cc	0.22663039
38	0x3e33d8e1	0.17563201
39	0x3daf5adb	0.08562251
40	0x3e222585	0.15834625
41	0x3e2129a7	0.15738545
42	0x3e59cb1b	0.21268885
43	0x3e212094	0.15735084
44	0x3e82941f	0.25503632
45	0x3e0e75f2	0.1391218
46	0x3e24f76e	0.16110012
47	0x3e390ebf	0.18072031
48	0x3e2eadc8	0.1705848
49	0x3e0c22d7	0.13685165

module.dense.9.weight f4 [1, 50]
0	0x3de48703	0.11158564
1	0x3dc24487	0.09485727
2	0xbde3c5af	-0.111216895
3	0x3dba2247	0.09088569
4	0x3e31334b	0.17304723
5	0x3e2a56f1	0.16634728
6	0xbdb13236	-0.08652155
7	0x3e26ce55	0.16289647
8	0x3e19a470	0.15004134
9	0x3e2d2abf	0.16910838
10	0x3e281fdc	0.16418403
11	0xbd8185ca	-0.06324346
12	0xbe0981a2	-0.13428357
13	0x3e04bab3	0.12961845
14	0xbda798bb	-0.08183428
15	0xbdb265af	-0.08710801
16	0xbde77a3c	-0.11302611
17	0x3e36d743	0.17855553
18	0x3e2573c3	0.16157441
19	0x3e3f5097	0.18683086
20	0x3e353a6e	0.1769807
21	0x3e044e52	0.12920502
22	0xbdae54e4	-0.08512285
23	0xbd922b4b	-0.07137164
24	0xbda6f995	-0.08153073
25	0xbdb600d7	-0.08886879
26	0xbdd23dc3	-0.10265686
27	0xbdab0d0f	-0.083521
28	0x3e15b116	0.14618334
29	0xbdeae41d	-0.114692904
30	0x3e101e18	0.1407398
31	0x3e05c8c8	0.13064873
32	0x3e224e4a	0.15850177
33	0x3e15ed37	0.14641272
34	0xbd80dc06	-0.06291966
35	0x3ddf8f19	0.109159656
36	0xbdcddc2a	-0.100517586
37	0x3e103d4f	0.14085887
38	0xbd976bac	-0.07393584
39	0xbd5cdd6e	-0.05392211
40	0xbd8ced62	-0.06881215
41	0xbdb79d50	-0.08965552
42	0x3e243e31	0.16039349
43	0x3e58949e	0.21150443
44	0x3e171525	0.1475416
45	0x3e132bdc	0.143722
46	0x3e0dd033	0.13848953
47	0xbdaac340	-0.08338022
48	0x3e55c903	0.20877461
49	0xbd824c86	-0.06362252
