model/25/tcr_pmhc_model.pt (torch, 586101 bytes, 11 tensors)

module.pmhc_linear.0.weight f4 [1, 256]
0.04871627 -0.0005675917 -0.09558428 -0.028192148 -0.05334112 0.053009603 0.042512104 0.027093284
-0.05321693 -0.03846811 0.030533556 -0.029849874 0.0668289 -0.029872026 0.0982028 0.02477317
-0.015370731 0.026311113 0.010252792 0.069719516 -0.032797173 -0.0025557848 -0.00019256813 -0.06230009
-0.0492739 -0.046479624 -0.019335221 0.022611642 -0.0019933702 0.0971113 0.055226788 0.03734524
-0.0013374293 0.016860928 -0.060349092 -0.052619465 -0.052777793 0.029147664 -0.028451808 0.040799916
0.018768527 -0.017307708 -0.07142335 0.034007236 -0.043135975 0.032392513 0.028271241 0.04192465
0.033500984 0.09224886 0.082100525 -0.035592064 -0.036023542 0.011155966 0.0075300075 -0.044496022
-0.022008458 -0.0039114305 0.005253503 0.055073455 -0.046608597 -0.073499985 -0.0030901404 -0.009708414
0.07158687 0.026409011 -0.08503521 -0.09514122 -0.08892642 -0.03537831 0.027586255 0.05944953
-0.019089429 -0.012889219 0.020287666 0.010555272 -0.067003846 0.006037195 -0.037708513 0.050362565
-0.03742544 0.076419726 0.05690422 -0.00958822 -0.06123714 -0.045557894 0.031823028 -0.0498662
0.05723752 -0.035801426 0.107208595 -0.034435637 0.053724017 0.034057032 0.029832313 0.034480307
0.060068697 -0.022521185 -0.044002943 0.047527637 0.060359463 -0.0272605 -0.06607131 0.028076986
0.067643754 0.06569737 -0.006459941 -0.08205476 0.008890162 0.07110311 0.03172327 -0.042896945
0.028927904 0.05381326 -0.02798038 0.0076907054 0.07800278 0.035322253 -0.07667325 0.062187064
-0.009395361 0.003178903 0.035432436 -0.032015733 0.03618954 0.0030000235 0.02545821 0.01757356
-0.041742638 -0.03322848 0.025299018 0.005134276 0.09886191 -0.04535304 0.061645202 -0.044032235
-0.07099227 -0.06191556 -0.106092066 0.013286601 -0.004664163 0.032077912 -0.0049153515 0.015638847
0.02492091 -0.005032537 -0.0012147746 0.041117646 -0.021186497 0.0062931753 0.07512333 -0.0092635
-0.017866405 0.026784845 0.036419284 -0.04541731 0.0265033 0.011735367 -0.059596084 -0.038184408
0.013160602 -0.0134887155 0.009898511 0.08173908 0.0033098566 0.047866113 -0.039246734 0.013078464
0.004015124 0.0428421 0.021670144 -0.025038444 -0.06839729 0.05199351 -0.043849107 0.008082507
-0.005981702 0.042308994 0.06238275 -0.010409805 -0.055032786 0.03621496 0.04653583 -0.022568837
0.02250415 0.039233513 0.05577226 -0.020809269 0.06110916 -0.05314062 0.01161622 -0.025088064
-0.0782167 -0.07967709 0.0699276 -0.037632164 -0.010183631 0.04260576 0.008265865 -0.0071276315
-0.09710462 0.03566153 0.0027731117 0.008287885 0.0778457 -0.030640755 -0.012620795 0.0010963986
-0.010378699 -0.018770913 -0.0039564245 0.018597368 0.003089911 0.02278471 -0.0734352 -0.036245435
-0.041033022 0.014775224 -0.03498898 -0.061607845 -0.0069203097 0.047979552 0.030096266 0.04599281
-0.043475576 -0.023954155 0.0012894204 0.048788898 0.05581288 -0.0025352468 0.021712238 0.0030347502
0.04298873 -0.025344983 -0.005652523 0.049636003 -0.0056376695 -0.019277457 0.0451584 -0.048932336
-0.04611733 0.02352276 -0.025799159 0.014146382 0.030216347 0.03405208 -0.039801743 0.02819207
-0.03151668 -0.040851183 -0.0070905965 -0.028760303 -0.035019103 0.012820006 0.020101061 -0.032135926
00000000: b68a 473d 6fca 14ba b1c1 c3bd 38f3 e6bc
00000010: 387c 5abd 9920 593d 2c21 2e3d bcf2 dd3c
00000020: fff9 59bd bd90 1dbd 8221 fa3c b987 f4bc
00000030: 97dd 883d 2eb6 f4bc 8d1e c93d 1af1 ca3c
00000040: 85d5 7bbc 678a d73c 54fb 273c 1bc9 8e3d
00000050: 5456 06bd f47e 27bb 1dec 49b9 612e 7fbd
00000060: 6ed3 49bd 6b61 3ebd e664 9ebc 0d3c b93c
00000070: 34a3 02bb 4ae2 c63d 7c35 623d 53f7 183d
00000080: ae4c afba ee1f 8a3c 9c30 77bd 8287 57bd
00000090: 872d 58bd 15c7 ee3c c413 e9bc d01d 273d
000000a0: 74c0 993c e5c8 8dbc 6846 92bd 2c4b 0b3d
000000b0: 59af 30bd 03ae 043d 1799 e73c 2fb9 2b3d
000000c0: 5438 093d f8ec bc3d 5224 a83d fcc8 11bd
000000d0: 6c8d 13bd 83c7 363c 48be f63b 7641 36bd
000000e0: 154b b4bc 752b 80bb 9425 ac3b b494 613d
000000f0: a8e8 3ebd 2987 96bd f483 4abb 0a10 1fbc
00000100: 239c 923d b657 d83c f126 aebd 66d9 c2bd
00000110: 0e1f b6bd d9e8 10bd 92fc e13c 5a81 733d
00000120: 6f61 9cbc 4e2d 53bc 5232 a63c 05f0 2c3c
00000130: 5039 89bd aad3 c53b 3e74 1abd fa48 4e3d
00000140: 6b4b 19bd f281 9c3d 6614 693d e917 1dbc
00000150: ccd3 7abd ea9a 3abd dd58 023d 8040 4cbd
00000160: e471 6a3d 84a4 12bd 2e90 db3d 620c 0dbd
00000170: b70d 5c3d 637f 0b3d e562 f43c 393b 0d3d
00000180: 980a 763d 597e b8bc 6e3c 34bd 57ac 423d
00000190: 7c3b 773d 6951 dfbc 6550 87bd b501 e63c
000001a0: cf88 8a3d 588c 863d eaad d3bb 530c a8bd
000001b0: 0ba8 113c 829e 913d 42f0 013d b5b4 2fbd
000001c0: 36fa ec3c 4b6b 5c3d 1c37 e5bc 5002 fc3b
000001d0: ecbf 9f3d 11ae 103d dd06 9dbd ddb7 7e3d
000001e0: 00ef 19bc 2455 503b 9a21 113d ee22 03bd
000001f0: 7c3b 143d 0b9c 443b bc8d d03c 6df6 8f3c
00000200: 54fa 2abd 961a 08bd e33f cf3c 6e3d a83b
00000210: 1d78 ca3d 1cc4 39bd ae7f 7c3d 255b 34bd
00000220: 6564 91bd 2c9b 7dbd cc46 d9bd 0bb0 593c
00000230: d6d5 98bb 2164 033d f510 a1bb 0a1d 803c
00000240: f026 cc3c fbe7 a4bb 1239 9fba fa6a 283d
00000250: 4e8f adbc fb36 ce3b 43da 993d efc5 17bc
00000260: 915c 92bc e46b db3c 632c 153d 8007 3abd
00000270: 731d d93c b245 403c 061b 74bd 4167 1cbd
00000280: 919f 573c c6ff 5cbc 5d2d 223c d266 a73d
00000290: 2eea 583b 420f 443d 2fc1 20bd 0e47 563c
000002a0: 4d91 833b 337b 2f3d 9685 b13c 6c1d cdbc
000002b0: e113 8cbd 26f7 543d 1f9b 33bd 7e6c 043c
000002c0: 2702 c4bb 324c 2d3d 0e85 7f3d e38d 2abc
000002d0: 0f6a 61bd 2356 143d 5b9c 3e3d 48e2 b8bc
000002e0: a05a b83c 52b3 203d 7471 643d 3378 aabc
000002f0: 994d 7a3d fba9 59bd f551 3e3c 7c85 cdbc
00000300: 1430 a0bd be2d a3bd 3436 8f3d 2f24 1abd
00000310: 3fd9 26bc 6183 2e3d 8d6d 073c e88e e9bb
00000320: c9de c6bd d311 123d 18bd 353b e9c9 073c
00000330: 916d 9f3d 5202 fbbc 73c7 4ebc 08b5 8f3a
00000340: 6b0b 2abc 75c5 99bc e5a4 81bb 8259 983c
00000350: 1b80 4a3b 00a7 ba3c 3265 96bd 1876 14bd
00000360: 3e12 28bd c813 723c 9b50 0fbd 8258 7cbd
00000370: c4c3 e2bb 3586 443d 728c f63c f562 3c3d
00000380: 7213 32bd 813b c4bc c501 a93a ded6 473d
00000390: 0c9c 643d 6226 26bb dddd b13c a9e2 463b
000003a0: f314 303d 48a0 cfbc cd38 b9bb 1f4f 4b3d
000003b0: 33bc b8bb c2eb 9dbc 04f8 383d 466d 48bd
000003c0: 87e5 3cbd ceb2 c03c c258 d3bc 3ac6 673c
000003d0: 4688 f73c 327a 0b3d 2707 23bd 0ef3 e63c
000003e0: a217 01bd 9253 27bd 3c58 e8bb ba9a ebbc
000003f0: 3170 0fbd 010b 523c fbaa a43c f6a0 03bd

module.tcr_linear.0.weight f4 [1, 256]
0.028948162 -0.08302626 0.06528703 -0.028363205 0.058905393 0.1338069 -0.065032534 -0.022219995
-0.08360537 -0.046863083 -0.03444013 0.041206762 0.055158097 -0.09249529 -0.04186363 -0.021252852
-0.025489766 0.10246343 -0.110170275 -0.05919317 -0.02951572 -0.092997484 -0.059129253 -0.027200332
0.12241963 0.15690139 0.0034114292 -0.03834839 -0.117693566 0.110002376 0.0040993057 -0.07644317
0.0122818975 0.022412462 -0.048767798 0.08034664 -0.05712296 -0.04837007 -0.013851079 0.01929722
-0.12643927 0.06388992 0.10652592 0.09823968 -0.1200402 -0.025763966 -0.090375274 -0.15803993
0.057492666 -0.027690878 0.052334886 0.07518526 -0.037948847 0.11038842 -0.049030684 0.100988165
-0.04860158 0.04806028 -0.13103892 -0.03141627 0.044126224 -0.09173867 -0.0544076 0.12117126
-0.12517709 -0.05991869 -0.12586816 0.017393034 -0.15231152 0.021026993 0.14934173 -0.0011541651
0.016762028 -0.018926915 -0.044913717 -0.036650945 0.06522837 0.0365096 -0.053860713 -0.04751997
0.10442681 0.034726653 -0.011189643 0.054243535 0.13873816 0.20436068 0.05167126 0.030707499
0.15203466 -0.031985912 0.058475178 -0.1437976 0.11692142 0.039225582 0.06904032 0.13909782
-0.11491546 0.118344374 0.08903645 -0.04298138 0.047745086 -0.0456531 -0.0046880157 0.038121205
-0.04870639 -0.006923045 0.11876462 0.037278425 -0.02625517 0.12832703 -0.003497306 0.078039885
-0.051212505 0.021929272 -0.024936574 -0.09050681 0.22810426 -0.0264236 -0.010900104 0.0640465
-0.10432082 0.021616042 0.0029526046 -0.055184864 0.06989225 -0.02049684 -0.080053 -0.016882688
0.027537102 -0.1518616 -0.00059812586 -0.09163415 -0.007551801 -0.0055396543 -0.024473095 0.02185344
-0.13089088 -0.058811534 0.08803002 0.002108559 -0.08031895 0.0048249667 0.0017067351 0.12339627
-0.0033535957 -0.09503073 -0.04386287 0.156361 -0.06617779 -0.028172446 0.00092019513 0.11068256
-0.05191583 -0.025063828 0.04567779 0.022352593 0.034057412 0.10839676 -0.0633092 0.034845922
0.034276072 0.093687974 0.014978566 -0.012245335 0.052611288 -0.04457368 0.053716034 0.048971355
-0.042366363 -0.03075664 -0.03626065 -0.0017354296 0.007314666 -0.038978294 0.10722332 0.07550135
0.14292029 0.047369305 0.046625353 -0.0396779 -0.06581479 0.019035459 -0.056526512 -0.05981118
0.058096167 -0.071982026 0.02894435 0.01649586 -0.082990244 -0.0502377 -0.09821403 0.039161358
-0.012994022 -0.054239962 -0.048438102 -0.030613 -0.033517357 -0.035229914 -0.07953367 0.012745148
0.088746265 0.0779302 0.07448668 -0.030896379 -0.05631346 0.10336555 0.009864891 -0.025650311
0.06336453 -0.0481649 0.014228533 0.04257779 -0.07440291 -0.04976291 -0.0035980323 0.033554588
-0.06340069 -0.06439208 -0.040863696 -0.004949021 0.066493444 0.07345148 0.03572009 0.07410778
-0.013696342 -0.039554425 0.02679301 -0.04437168 0.13319217 -0.087509215 0.069763266 0.0657891
0.062214028 -0.0014675441 -0.020002013 0.0081159705 -0.03965401 0.07510978 -0.10118641 -0.029886397
-0.05313347 0.11206723 0.040684246 -0.0034691496 -0.06682105 0.04160843 0.1905697 0.061564203
-0.11630283 0.043196544 -0.01759532 -0.21737051 -0.060004134 0.05400225 -0.06732934 0.0060437974
00000000: b224 ed3c ac09 aabd 35b5 853d f459 e8bc
00000010: c846 713d ad04 093e c72f 85bd b506 b6bc
00000020: 4b39 abbd 81f3 3fbd 1811 0dbd 6cc8 283d
00000030: 75ed 613d 2c6e bdbd 3379 2bbd 761a aebc
00000040: eacf d0bc 59d8 d13d f4a0 e1bd 8a74 72bd
00000050: f4ca f1bc 7775 bebd 8431 72bd 3bd3 debc
00000060: 25b7 fa3d c2aa 203e 4992 5f3b 3413 1dbd
00000070: 5309 f1bd ed48 e13d 7853 863b 3d8e 9cbd
00000080: 033a 493c 579a b73c bec0 47bd c78c a43d
00000090: c4f9 69bd b21f 46bd a3ef 62bc 3415 9e3c
000000a0: 4c79 01be b8d8 823d 432a da3d e331 c93d
000000b0: a3d7 f5bd f40e d3bc ac16 b9bd 38d5 21be
000000c0: 6e7d 6b3d fbd7 e2bc 1b5d 563d bbfa 993d
000000d0: 4070 1bbd 5313 e23d 66d4 48bd e2d2 ce3d
000000e0: 7312 47bd dbda 443d 112f 06be 59ae 00bd
000000f0: b3bd 343d 7ce1 bbbd 81da 5ebd a328 f83d
00000100: 6c2e 00be 4d6d 75bd 95e3 00be d67b 8e3c
00000110: 8df7 1bbe cd40 ac3c 0aed 183e 5b47 97ba
00000120: 8550 893c 9e0c 9bbc 72f7 37bd 4d1f 16bd
00000130: 7496 853d 178b 153d 0d9d 5cbd 4da4 42bd
00000140: b9dd d53d 893d 0e3d c454 37bc 782e 5e3d
00000150: 6011 0e3e ed43 513e 3ea5 533d 4b8e fb3c
00000160: f9ae 1b3e a903 03bd ab83 6f3d ae3f 13be
00000170: 7f74 ef3d 01ab 203d 0365 8d3d a96f 0e3e
00000180: cc58 ebbd 895e f23d be58 b63d 3e0d 30bd
00000190: 5a90 433d bffe 3abd ed9d 99bb fb24 1c3d
000001a0: 5a80 47bd b6da e2bb dd3a f33d 43b1 183d
000001b0: 1515 d7bc 2968 033e 0f33 65bb 60d3 9f3d
000001c0: 34c4 51bd 04a5 b33c c947 ccbc a25b b9bd
000001d0: 2a94 693e 4e76 d8bc 5a96 32bc d02a 833d
000001e0: 27a6 d5bd 2014 b13c 7c80 413b 8609 62bd
000001f0: ab23 8f3d fde8 a7bc d4f2 a3bd 904d 8abc
00000200: 7d95 e13c 9b81 1bbe 8ccb 1cba afaa bbbd
00000210: 1975 f7bb fd85 b5bb cd7b c8bc fc05 b33c
00000220: 4208 06be 5de4 70bd 1549 b43d c02f 0a3b
00000230: 437e a4bd c11a 9e3b 87b4 df3a 2fb7 fc3d
00000240: 00c8 5bbb 799f c2bd 8ea9 33bd 191d 203e
00000250: 3988 87bd e7c9 e6bc 4039 713a 8aad e23d
00000260: b1a5 54bd a852 cdbc a218 3b3d c91c b73c
00000270: c97f 0b3d 1fff dd3d 41a8 81bd 99ba 0e3d
00000280: 1165 0c3d 7bdf bf3d a968 753c a8a0 48bc
00000290: ef7e 573d e492 36bd 5805 5c3d 3096 483d
000002a0: 5a88 2dbd 59f5 fbbc 0c86 14bd 5b77 e3ba
000002b0: deaf ef3b b4a7 1fbd e697 db3d 74a0 9a3d
000002c0: b259 123e 5106 423d 3afa 3e3d 4b85 22bd
000002d0: e8c9 86bd 40f0 9b3c 5888 67bd 91fc 74bd
000002e0: 3ff6 6d3d 506b 93bd b41c ed3c 5322 873c
000002f0: caf6 a9bd 0cc6 4dbd 7024 c9bd a967 203d
00000300: e1e4 54bc b92a 5ebd 0867 46bd 1dc8 fabc
00000310: 7f49 09bd 3e4d 10bd 8ce2 a2bd 06d1 503c
00000320: 9ac0 b53d de99 9f3d 798c 983d 671a fdbc
00000330: f1a8 66bd 51b1 d33d 5aa0 213c 9a20 d2bc
00000340: 43c5 813d 8f48 45bd cb1e 693c 0c66 2e3d
00000350: 8e60 98bd 31d4 4bbd f7cc 6bbb 8970 093d
00000360: 39d8 81bd ffdf 83bd b160 27bd 662b a2bb
00000370: b72d 883d bb6d 963d 3b4f 123d d2c5 973d
00000380: 9f66 60bc d203 22bd 047d db3c 14bf 35bd
00000390: 8763 083e 0838 b3bd 0be0 8e3d 70bc 863d
000003a0: 23d4 7e3d 9c5a c0ba 43db a3bc d9f8 043c
000003b0: 3e6c 22bd 28d3 993d d23a cfbd 51d4 f4bc
000003c0: 7ba2 59bd 8183 e53d 86a4 263d ac5a 63bb
000003d0: 7ad9 88bd 9a6d 2a3d b424 433e bf2a 7c3d
000003e0: 2e30 eebd dcee 303d 0f24 90bc 6096 5ebe
000003f0: e5c6 75bd 7731 5d3d f7e3 89bd 0c0b c63b

module._pmhc_linear.0.weight f4 [1, 54]
-0.05022959 -0.017344767 -0.03389273 -0.040788542 -0.0020240936 -0.054323588 0.004030532 -0.032318264
-0.0072590853 0.035134938 0.035085764 0.009174327 -0.109170906 0.07034439 -0.04926134 0.056559537
0.07606301 0.06790905 -0.027162623 -0.06740044 0.044718906 0.028070888 0.10224228 0.046301946
0.056595642 0.09653942 0.049710456 -0.10993921 -0.014663924 -0.025576113 -0.04010304 0.03147919
-0.03179316 -0.04008978 0.10715424 -0.094380006 -0.034908224 0.069022164 0.09727305 -0.03659347
-0.025721148 0.026632426 0.086509556 0.014419611 -0.00097495195 -0.05100519 -0.032243144 0.030635338
0.048949882 0.0078017497 0.032900356 -0.0431329 -0.0791869 0.08204652
00000000: 8bbd 4dbd 9d16 8ebc 1ad3 0abd e311 27bd
00000010: a8a6 04bb 6982 5ebd 8e12 843b 2860 04bd
00000020: 9fdd edbb a7e9 0f3d 17b6 0f3d eb4f 163c
00000030: ff94 dfbd b810 903d 42c6 49bd f9aa 673d
00000040: ecc6 9b3d e613 8b3d 2684 debc 3e09 8abd
00000050: 2c2b 373d ebf4 e53c 6764 d13d 1ca7 3d3d
00000060: d5d0 673d 76b6 c53d 319d 4b3d cf27 e1bd
00000070: f540 70bc ff84 d1bc 1643 24bd 53f0 003d
00000080: 8b39 02bd 2e35 24bd af73 db3d 4e4a c1bd
00000090: edfb 0ebd 7e5b 8d3d 1837 c73d 09e3 15bd
000000a0: 28b5 d2bc 3f2c da3c ec2b b13d 3b40 6c3c
000000b0: eb93 7fba d1ea 50bd 6311 04bd f6f6 fa3c
000000c0: ac7f 483d d2a5 ff3b 86c2 063d 20ac 30bd
000000d0: be2c a2bd 0208 a83d

module._tcr_linear.0.weight f4 [1, 30]
0.17635907 0.20655142 0.2889831 0.25177246 -0.09089562 -0.008904009 0.0008333566 -0.03507189
0.0015746979 0.038114883 0.031482775 0.0885354 0.041613836 0.058066282 0.06487581 0.07749242
0.093227975 -0.010222194 0.08189177 0.072324336 0.01919583 0.15835048 0.074871 -0.12060585
0.06617168 -0.018481974 0.13124315 -0.08014867 -0.076768 0.00017757952
00000000: 7997 343e 3782 533e 98f5 933e 52e8 803e
00000010: 7c27 babd 1fe2 11bc 9d75 5a3a 8ba7 0fbd
00000020: 1866 ce3a 5a1e 1c3d 15f4 003d 0c52 b53d
00000030: 4573 2a3d e9d6 6d3d 9cdd 843d 59b4 9e3d
00000040: 4fee be3d fd7a 27bc dfb6 a73d c81e 943d
00000050: 9340 9d3c a126 223e f855 993d 3300 f7bd
00000060: 0585 873d 8267 97bc 9b64 063e fc24 a4bd
00000070: 8b38 9dbd a434 3a39

module.dense.0.weight f4 [200, 596]
0.07297652 -0.10969066 -0.103998005 -0.01635247 -0.025823966 -0.019953113 -0.0028493023 0.0033353325
-0.030922025 -0.04681927 -0.06857573 -0.030224133 0.009385542 0.0013423766 -0.032577492 0.008241364
0.01847166 0.07045036 0.023956632 0.018282391 -0.02408918 0.085034564 -0.016921123 0.043767516
0.029553141 0.017834445 0.015977265 -0.018364677 -0.011582731 -0.08534422 0.0049081915 -0.08121171
-0.02257854 -0.06385962 -0.011807116 0.09028827 -0.04361625 0.016883597 -0.008377868 -0.029699361
-0.009370257 0.059408333 0.03816502 0.012862674 -0.05277487 0.008431608 0.11047393 -0.06739111
0.10445801 0.021791663 -0.012706377 -0.08229817 -0.030744398 0.02952919 -0.020420596 0.011251917
0.01149353 0.030705607 -0.03771172 0.045749754 -0.09604859 0.009320558 0.0042423066 -0.03441073
0.0648408 -0.030095562 -0.038096156 -0.042269986 -0.04091431 0.03406532 0.056283355 0.005975177
0.0014325123 0.029615536 -0.0007928406 0.00071841973 -0.022424378 0.050257877 0.030260013 -0.0054211086
-0.028180575 -0.0029431202 -0.056126393 -0.01603197 -0.022957684 0.026093448 0.0142836105 0.023042772
0.03071432 -0.026368152 -0.036048964 0.002433002 0.015353161 0.02628546 0.06262777 -0.043713976
-0.091167785 0.048187397 -0.033776645 0.04359371 0.09484415 -0.0011721179 0.011185819 0.024938032
0.02196707 0.013580488 0.018456265 -0.025952425 -0.014883394 -0.048976447 0.07126728 -0.020627333
0.062120996 0.049352325 -0.03270493 0.007397092 0.01729449 -0.1097475 0.0064246003 0.029353166
-0.020599913 -0.009848247 -0.03887075 -0.054378863 -0.11488133 -0.05811675 -0.043600455 0.06572237
-0.052658584 0.03144134 -0.0010672163 -0.041011047 -0.012317329 -0.031986494 -0.033938527 0.0040331706
0.029893486 0.015953971 -0.021422189 0.0026311283 0.024502171 0.05889714 -0.009088518 0.0535455
-0.009478665 0.06268715 0.0060916375 0.055366702 0.0028362856 -0.095278025 -0.050820775 -0.030423354
0.07668536 0.004826912 0.0060986932 -0.04309611 0.009842267 -0.03362976 0.07224227 -0.15553269
0.038155794 -0.014193839 0.009936248 -0.0217833 -0.040941432 -0.012843786 0.022468489 -0.02234133
-0.0020348136 0.082116224 -0.05662507 0.01713068 0.055185396 0.03238231 0.008224192 0.08244895
-0.03063026 -0.045068316 -0.061063603 0.03986911 0.067350164 0.031521242 -0.005231862 0.081316255
-0.038484134 -0.07916365 0.042501803 -0.017455222 -0.1148907 0.051439647 0.001991085 0.054942034
0.040172175 0.035690196 0.06639163 0.020770209 -0.02353537 -0.023211667 0.014117966 -0.013899276
-0.062598065 0.0005403625 0.044694144 0.0051347385 0.056089915 -0.023881622 -0.01513711 -0.026612671
-0.045853153 0.021890644 0.004317658 -0.07871223 -0.028183624 0.062371064 0.017459119 -0.008281418
0.03493383 -0.018043147 0.040859517 0.004880301 -0.002069255 0.03915028 -0.0815322 -0.13746709
0.07044818 0.07253504 -0.034562845 0.029706193 0.025217721 0.028003624 0.017386919 -0.050469585
0.0070923376 0.039240945 0.04494386 0.039900962 -0.0559757 0.03837922 -0.13781118 0.026054725
-0.01508765 0.0023967607 0.025153553 0.0020596576 -0.007585009 -0.00060181826 -0.07844711 -0.012143303
0.009553999 -0.049134757 0.034926526 -0.011152344 -0.031090481 -0.031121433 -0.0037346256 -0.012015163
00000000: b774 953d 7fa5 e0bd e8fc d4bd 9df5 85bc
00000010: c88c d3bc b674 a3bc 5cbb 3abb 9895 5a3b
00000020: 3050 fdbc 90c5 3fbd 6f71 8cbd 9a98 f7bc
00000030: d1c5 193c aff2 af3a fa6f 05bd c906 073c
00000040: e151 973c 4748 903d b340 c43c f4c4 953c
00000050: ac56 c5bc 9a26 ae3d 2b9e 8abc 9145 333d
00000060: 6e19 f23c 8b19 923c c1e2 823c 8571 96bc
00000070: 7fc5 3dbc f3c8 aebd e5d4 a03b 5352 a6bd
00000080: a1f6 b8bc d5c8 82bd a272 41bc 0ee9 b83d
00000090: f4a6 32bd 784f 8a3c 5343 09bc 134c f3bc
000000a0: b585 19bc 2756 733d ed52 1c3d f7bd 523c
000000b0: 762a 58bd ba24 0a3c 2840 e23d 5a04 8abd
000000c0: 15ee d53d 6e84 b23c 682e 50bc f18b a8bd
000000d0: addb fbbc 33e7 f13c 1849 a7bc f659 383c
000000e0: 5c4f 3c3c 538a fb3c 9b77 1abd 1864 3b3d
000000f0: 20b5 c4bd 41b5 183c 0c03 8b3b 44f2 0cbd
00000100: 41cb 843d f88a f6bc b70a 1cbd 4b23 2dbd
00000110: c395 27bd 1488 0b3d 6089 663d 6bcb c33b
00000120: 23c3 bb3a 489c f23c a2d6 4fba 5554 3c3a
00000130: 54b3 b7bc 34db 4d3d d9e3 f73c 8ea3 b1bb
00000140: f3da e6bc 5de1 40bb cae4 65bd 7a55 83bc
00000150: c111 bcbc edc1 d53c ce05 6a3c 32c4 bc3c
00000160: 999c fb3c 0602 d8bc 14a8 13bd 0073 1f3b
00000170: d38b 7b3c 9b54 d73c fd42 803d 6d0d 33bd
00000180: 2db6 babd 2660 453d 6159 0abd 518f 323d
00000190: a63d c23d c0a1 99ba ba44 373c d84a cc3c
000001a0: 49f4 b33c b280 5e3c 9831 973c 2e9a d4bc
000001b0: 7bd9 73bc 879b 48bd 94f4 913d a7fa a8bc
000001c0: 9672 7e3d aa25 4a3d 9bf5 05bd 4e63 f23b
000001d0: 2dad 8d3c 4cc3 e0bd 7485 d23b 0d76 f03c
000001e0: 26c1 a8bc 8b5a 21bc f036 1fbd 5fbc 5ebd
000001f0: e746 ebbd d40b 6ebd 6496 32bd 7399 863d
00000200: 87b0 57bd a2c8 003d d6e1 8bba 33fb 27bd
00000210: 9fce 49bc 4504 03bd 2003 0bbd b028 843b
00000220: 2fe3 f43c e7b1 823c 967d afbc 026f 2c3b
00000230: c7b8 c83c 213e 713d 02e8 14bc 8752 5b3d
00000240: 674c 1bbc 1f62 803d 5c9c c73b 32c8 623d
00000250: fae0 393b 2021 c3bd 7229 50bd 663a f9bc
00000260: 370d 9d3d 132b 9e3b 8cd7 c73b 8c85 30bd
00000270: 7641 213c 5cbf 09bd c1f3 933d f643 1fbe
00000280: 4049 1c3d 478d 68bc a5cb 223c e472 b2bc
00000290: 34b2 27bd be6e 52bc d60f b83c 2a05 b7bc
000002a0: 825a 05bb 8d2c a83d b0ef 67bd a455 8c3c
000002b0: 150a 623d 50a3 043d c3be 063c ffda a83d
000002c0: 50ec fabc 8e99 38bd d41d 7abd cb4d 233d
000002d0: e2ee 893d 6b1c 013d 0a70 abbb 2389 a63d
000002e0: 8aa1 1dbd 8d20 a2bd 5f16 2e3d 41fe 8ebc
000002f0: d14b ebbd 61b2 523d dd7c 023b e60a 613d
00000300: 948b 243d e22f 123d 56f8 873d 4926 aa3c
00000310: 40cd c0bc 6526 bebc 0b4f 673c cab9 63bc
00000320: 6a33 80bd 1da7 0d3a 3511 373d 4f41 a83b
00000330: 8abe 653d 64a3 c3bc a401 78bc d102 dabc
00000340: 84d0 3bbd 0254 b33c 247b 8d3b e133 a1bd
00000350: 58e1 e6bc cd78 7f3d 6d06 8f3c c9ae 07bc
00000360: c716 0f3d 39cf 93bc 4f5c 273d efea 9f3b
00000370: 579c 07bb 0b5c 203d 5bfa a6bd 2cc4 0cbe
00000380: 2347 903d 408d 943d c591 0dbd 675a f33c
00000390: 6595 ce3c db67 e53c 036f 8e3c 32b9 4ebd
000003a0: d766 e83b 1dbb 203d 0e17 383d 316f 233d
000003b0: c746 65bd 8733 1d3d 601e 0dbe b870 d53c
000003c0: 3132 77bc f912 1d3b d30e ce3c 52fb 063b
000003d0: ab8b f8bb 57c3 1dba e1a8 a0bd b4f4 46bc
000003e0: 6088 1c3c 8741 49bd 1e0f 0f3d 52b8 36bc
000003f0: 77b1 febc 60f2 febc 9fc0 74bb 3fdb 44bc

module.dense.0.bias f4 [200]
-0.022602899 0.012884018 -0.05017347 -0.024236549 0.018266877 0.01068989 0.029629128 -0.046577066
-0.012686177 -0.0076363743 0.019767102 0.017225608 -0.009035104 -0.0010208611 0.029195271 0.00333162
-0.04150194 -0.013086129 -0.026073314 0.026154121 -0.033183854 0.0125261955 -0.00838345 0.0028643701
0.033917744 0.003211747 -0.050483152 -0.011742706 0.0067552053 0.00692307 -0.05166489 -0.030440893
0.019435193 -0.042933557 0.009040189 -0.010217322 -0.0039489595 -0.034781963 -0.020570448 0.01887917
-0.011341879 0.02778502 -0.033965234 -0.009247719 0.006135896 0.023549672 0.006976786 0.01500706
-0.025547002 0.010476284 -0.035892084 0.016447924 0.011553506 0.0044970782 -0.042283297 0.025991924
0.009734716 0.011906026 -0.055387355 -0.012122339 -0.052214764 -0.020668099 -0.03821366 0.011403851
0.010072144 -0.0055336 -0.030859172 -0.040228613 -0.039887793 -0.00048603103 0.01456836 -0.0025186276
-0.050104357 -0.004555754 0.026669655 -0.05723634 0.02058324 -0.032697883 -0.012330471 -0.022989793
0.019061318 0.0062238597 -0.03972574 -0.020009028 -0.03492694 0.028594509 -0.023908895 -0.042314213
-0.033139404 -0.0027885297 0.022385074 -0.0131771015 -0.009007589 -0.014748674 -0.011514569 0.01775568
-0.011136849 -0.00020899536 0.0013855343 -0.022945179 -0.019679608 0.0006213077 -0.03589026 0.013142889
0.023753097 -0.0431146 -0.008039069 -0.016208695 -0.009835277 0.018916825 -0.044014618 -0.048303198
-0.027973378 0.011624214 0.006162413 0.010258156 -0.045195445 -0.033464085 -0.015512371 0.03959019
-0.013786657 0.01586692 -0.034427308 -0.043938547 0.0116167 0.03496862 -0.047456495 -0.011661091
-0.036262166 -0.019574866 0.026165487 -0.015523083 -0.03378566 0.005531387 0.0041337945 0.009927442
-0.04251782 0.02105924 0.01710024 0.0053813644 0.0145445345 0.010015272 -0.0019329553 0.012350537
4.422133e-07 0.0065333135 0.008869997 -0.029442051 -0.008271231 -0.01929557 -0.043811318 -0.036951073
-0.042859185 -0.01783508 -0.04431398 0.02309068 -0.029640058 0.004903216 -0.008423624 -0.025245544
-0.016772725 0.014329174 -0.0035254215 0.036392126 -0.03630428 0.026067767 -0.04136884 0.0074015036
-0.010011582 -0.05508381 -0.03911688 -0.0061068656 -0.009507331 0.00034409435 -0.012163372 -0.02435422
0.004468582 -0.006459373 0.025797483 -0.038644977 0.01826599 -0.020244403 -0.011061917 -0.020374978
-0.023967102 -0.0005574967 -0.035586853 -0.029621998 -0.0075788265 -0.010572906 -0.007993957 -0.015754202
-0.031481866 0.025035309 0.007014423 -0.02309521 -0.037112873 -0.0037671283 -0.023163011 0.018011747
00000000: b729 b9bc 7d17 533c b282 4dbd ba8b c6bc
00000010: 6ba4 953c a624 2f3c c9b8 f23c 98c7 3ebd
00000020: afd9 4fbc 8d3a fabb 9eee a13c b81c 8d3c
00000030: f907 14bc 6ace 85ba ec2a ef3c 4f57 5a3b
00000040: f0fd 29bd 3467 56bc b497 d5bc 2b41 d63c
00000050: cbeb 07bd ac3a 4d3c bd5a 09bc 28b8 3b3b
00000060: 55ed 0a3d 2c7c 523b 6cc7 4ebd 7b64 40bc
00000070: c55a dd3b ecda e23b 909e 53bd 2e5f f9bc
00000080: 8e36 9f3c 19db 2fbd 4d1d 143c 8e66 27bc
00000090: 4666 81bb 8877 0ebd 5b83 a8bc 7da8 9a3c
000000a0: 4ad3 39bc 699d e33c 211f 0bbd bf83 17bc
000000b0: a00f c93b 3eeb c03c 869d e43b 2ce0 753c
000000c0: f247 d1bc b8a4 2b3c 9403 13bd ccbd 863c
000000d0: eb4a 3d3c 3a5c 933b 4031 2dbd 04ed d43c
000000e0: 5c7e 1f3c 7e11 433c dadd 62bd c69c 46bc
000000f0: 26df 55bd 2550 a9bc ed85 1cbd 38d7 3a3c
00000100: a205 253c 3453 b5bb 60cc fcbc c2c6 24bd
00000110: 6261 23bd fbd1 feb9 21b0 6e3c 8f0f 25bb
00000120: 3a3a 4dbd 6f48 95bb 527a da3c a770 6abd
00000130: 2f9e a83c 37ee 05bd be05 4abc 1755 bcbc
00000140: 7b26 9c3c 85f1 cb3b 75b7 22bd f9e9 a3bc
00000150: 8d0f 0fbd 083f ea3c 96dc c3bc ab51 2dbd
00000160: 2fbd 07bd c4bf 36bb e760 b73c c5e4 57bc
00000170: 9194 13bc 6ca4 71bc 9aa7 3cbc 5c74 913c
00000180: 5577 36bc c425 5bb9 d19a b53a 87f7 bbbc
00000190: 2137 a1bc 41df 223a aa01 13bd 4655 573c
000001a0: db95 c23c ef98 30bd 4db6 03bc 19c8 84bc
000001b0: 2424 21bc 75f7 9a3c ac48 34bd 93d9 45bd
000001c0: 6d28 e5bc 7d73 3e3c 11ee c93b d311 283c
000001d0: dc1e 39bd a311 09bd 9a27 7ebc 5329 223d
000001e0: 6ee1 61bc 58fb 813c a603 0dbd e8f8 33bd
000001f0: f953 3e3c 413b 0f3d be61 42bd 290e 3fbc
00000200: a387 14bd 785b a0bc 0159 d63c 8754 7ebc
00000210: d562 0abd a340 b53b c874 873b b6a6 223c
00000220: 2a27 2ebd 6d84 ac3c cd15 8c3c 2856 b03b
00000230: 334c 6e3c 1817 243c 385b fdba e859 4a3c
00000240: 5569 ed34 6815 d63b 7753 113c 7530 f1bc
00000250: 0f84 07bc be11 9ebc 7f73 33bd 025a 17bd
00000260: 1d8d 2fbd e01a 92bc 9382 35bd aa28 bd3c
00000270: b5cf f2bc 28ab a03b 3d03 0abc becf cebc
00000280: f466 89bc e9c4 6a3c c20a 67bb e90f 153d
00000290: ccb3 14bd 128c d53c 5f72 29bd 5088 f23b
000002a0: 9e07 24bc 909f 61bd 0639 20bd 1a1c c8bb
000002b0: a3c4 1bbc 9067 b439 e148 47bc 8082 c7bc
000002c0: 2f6d 923b 26a9 d3bb 3e55 d33c 324a 1ebd
000002d0: 8fa2 953c 97d7 a5bc 0b3d 35bc 6de9 a6bc
000002e0: a856 c4bc f824 12ba 85c3 11bd d5a9 f2bc
000002f0: ce57 f8bb fb39 2dbc 16f9 02bc f50e 81bc
00000300: 21f3 00bd d916 cd3c 3fd9 e53b 2a32 bdbc
00000310: ab03 18bd ede1 76bb 5bc0 bdbc 5f8d 933c

module.dense.3.weight f4 [100, 200]
-0.06175181 0.0009297875 -0.05027626 -0.06487217 0.010535469 -0.04701992 0.047195576 0.0053531313
0.05277727 -0.04877704 -0.03313389 0.028983127 0.033291295 0.08430347 0.12687346 0.13488384
0.06415572 0.07011138 0.13106121 0.057571705 -0.07146743 0.042091273 0.039828047 -0.03121008
0.039991636 0.08501659 -0.05846648 0.1403578 0.05703 0.03470213 -0.011568721 -0.06646661
0.011313412 -0.0649915 0.005322662 -0.024846854 -0.0020482724 0.082402006 -0.012689643 -0.043074865
-0.021009233 -0.047892958 -0.006179262 0.023990665 0.04695282 -0.065811425 -0.040464144 -0.017861601
0.004416199 0.050924256 -0.05149452 0.07703889 -0.032854863 -0.030387348 0.005959361 -0.02700407
0.097596765 -0.028707456 -0.04214484 0.050775077 0.01013417 -0.0040417523 -0.07287771 0.036352865
0.04816156 0.064111434 0.10233788 0.032697342 -0.0741636 -0.016193056 -0.013176246 0.049537662
-0.07073537 -0.039372183 0.085319646 -0.052159283 0.103440344 -0.032456025 -0.07408914 0.019801892
-0.0008586151 0.042353325 -0.015583022 -0.07573133 -0.03951979 0.041841544 0.0055856025 0.054043405
-0.02890933 -0.0322306 -0.06767996 -0.044757575 -0.025754623 -0.013989818 -0.03416816 -0.024391897
-0.034841713 -0.054693397 -0.044175286 0.063229434 -0.008672646 -0.0016092653 -0.052442644 -0.006439458
0.0142026525 -0.041496903 0.008356106 -0.018884158 -0.061506256 0.10852045 -0.046525314 -0.019514542
-0.055279505 -0.06382161 -0.014721867 0.083141804 -0.021005653 -0.01892255 0.03689735 0.11507987
0.051175702 0.029314294 0.0686818 -0.108769625 0.02100161 0.023195004 -0.03240953 -0.0016639238
0.009389179 0.024865512 -0.041532155 0.029857501 -0.03683695 -0.02877118 -0.060847122 -0.049524814
0.011116108 -0.048309483 0.0431433 -0.006859381 -0.060455028 -0.040416066 -0.00710956 -0.062250685
0.023059623 0.033735693 -0.047609463 -0.033304185 0.106085494 -0.0102216825 0.006673707 -0.07613542
-0.008158346 -0.028629 0.010008514 0.015986905 -0.047359906 0.021015022 0.0065022265 -0.04211104
-0.1278455 0.1043577 -0.0011272898 -0.008183548 -0.045991115 0.0042641186 0.042243015 0.079766005
-0.016912693 -0.0575298 -0.088133685 0.09414338 0.055362854 0.04243833 -0.038942195 0.12402003
0.04255513 -0.07547818 0.082779594 0.06777463 -0.0077625113 0.009379244 0.07750923 -0.0576178
0.14208212 0.13969567 -0.0013226296 0.012494848 -0.058959737 0.08361089 -0.03887127 -0.016009998
0.027318731 -0.033265866 -0.042883206 -0.015401254 0.00575002 0.03916809 0.037498686 0.06133613
-0.0669387 -0.051726155 0.029865833 -0.012336023 0.047943417 0.044580966 0.046297174 -0.012293829
0.055451967 -0.05132337 0.01400964 0.08193164 0.05303847 0.06611471 0.010357364 -0.0007334383
0.01955342 0.06959966 0.07185241 0.020677894 -0.031817935 0.035810057 0.014523305 -0.021501869
0.009850178 -0.010628001 -0.06593182 -0.0079682795 -0.0031922844 0.08096338 0.044770397 -0.021287978
-0.0018211481 -0.037011843 -0.015011601 -0.028137995 -0.028850963 0.038693625 0.008019483 -0.0038898664
0.07134114 0.00459817 -0.0526726 -0.037311167 0.0014595395 -0.05453553 -0.021373387 0.0030409053
-0.035703104 0.060231812 -0.040646173 -0.020936359 -0.0691935 -0.05848659 -0.008298617 -0.080486014
00000000: 77ef 7cbd fcbc 733a 7bee 4dbd b3db 84bd
00000010: f69c 2c3c f697 40bd 2650 413d 5269 af3b
00000020: fb2c 583d 6fca 47bd 67b7 07bd 066e ed3c
00000030: 745c 083d 4ca7 ac3d 1eeb 013e fd1e 0a3e
00000040: 1364 833d 8e96 8f3d e934 063e 4fd0 6b3d
00000050: 845d 92bd e667 2c3d bc22 233d 48ac ffbc
00000060: 45ce 233d 2e1d ae3d 8c7a 6fbd f5b9 0f3e
00000070: 4a98 693d d223 0e3d bc8a 3dbc a51f 88bd
00000080: e45b 393c 431a 85bd ba69 ae3b a18b cbbc
00000090: 4f3c 06bb 62c2 a83d 38e8 4fbc 456f 30bd
000000a0: 8e1b acbc 682b 44bd 687b cabb 1288 c43c
000000b0: 9a51 403d 24c8 86bd bbbd 25bd 7e52 92bc
000000c0: c3b5 903b f495 503d ebeb 52bd 91c6 9d3d
000000d0: d292 06bd e3ee f8bc be46 c33b a437 ddbc
000000e0: d0e0 c73d e62b ebbc 11a0 2cbd 87f9 4f3d
000000f0: ca09 263c ad70 84bb e940 95bd bee6 143d
00000100: 0e45 453d db4c 833d 8696 d13d a6ed 053d
00000110: 16e3 97bd 4da7 84bc 2ee1 57bc 01e8 4a3d
00000120: b5dd 90bd ba44 21bd 11bc ae3d f9a4 55bd
00000130: 88d8 d33d 9cf0 04bd 0cbc 97bd 9437 a23c
00000140: af14 61ba ae7a 2d3d ee4f 7fbc 0719 9bbd
00000150: 81df 21bd 0a62 2b3d 6e07 b73b 9e5c 5d3d
00000160: 42d3 ecbc 3c04 04bd ca9b 8abd b853 37bd
00000170: 5cfb d2bc 8d35 65bc eaf3 0bbd 84d1 c7bc
00000180: 2fb6 0ebd 2f06 60bd 25f1 34bd 6f7e 813d
00000190: b717 0ebc fced d2ba 19ce 56bd 1702 d3bb
000001a0: 3eb2 683c a8f8 29bd 0ce8 083c f3b2 9abc
000001b0: fced 7bbd f83f de3d 5491 3ebd f6dc 9fbc
000001c0: c36c 62bd e7b4 82bd fc33 71bc 4046 aa3d
000001d0: 0c14 acbc 7703 9bbc ad21 173d ffae eb3d
000001e0: 9d9d 513d 8824 f03c 0ba9 8c3d 9cc2 debd
000001f0: 920b ac3c 7303 be3c dbbf 04bd 0518 daba
00000200: 12d5 193c c2b2 cb3c 9f1d 2abd b897 f43c
00000210: 57e2 16bd 8ab1 ebbc d53a 79bd 88da 4abd
00000220: 5620 363c 2ae0 45bd 07b7 303d a9c4 e0bb
00000230: b19f 77bd 518b 25bd 50f7 e8bb 93fa 7ebd
00000240: 89e7 bc3c 702e 0a3d 2402 43bd f869 08bd
00000250: 5a43 d93d d878 27bc 1daf da3b e3ec 9bbd
00000260: 95aa 05bc 5d87 eabc c0fa 233c f8f6 823c
00000270: 76fc 41bd b227 ac3c a110 d53b a07c 2cbd
00000280: eee9 02be 7db9 d53d 92c1 93ba 4a14 06bc
00000290: 2e61 3cbd 05ba 8b3b 0307 2d3d 5c5c a33d
000002a0: 7d8c 8abc 5ea4 6bbd 6f7f b4bd 3fce c03d
000002b0: 29c4 623d d0d3 2d3d da81 1fbd 37fe fd3d
000002c0: 4a4e 2e3d 4e94 9abd 5988 a93d 6dcd 8a3d
000002d0: aa5c febb 67ab 193c 29bd 9e3d a400 6cbd
000002e0: fa7d 113e 620c 0f3e 165c adba 31b7 4c3c
000002f0: c47f 71bd 303c ab3d 7b37 1fbd 6627 83bc
00000300: 88cb df3c ca41 08bd 4da6 2fbd 8b55 7cbc
00000310: aa6a bc3b b86e 203d 3998 193d 983b 7b3d
00000320: 2817 89bd cede 53bd 31a9 f43c 081d 4abc
00000330: 5160 443d 889a 363d 1ba2 3d3d 0e6c 49bc
00000340: 9a21 633d 7438 52bd b088 653c c7cb a73d
00000350: de3e 593d 2667 873d efb1 293c 3644 40ba
00000360: 7e2e a03c 448a 8e3d 5b27 933d b064 a93c
00000370: 8653 02bd 91ad 123d 28f3 6d3c b024 b0bc
00000380: a462 213c 1121 2ebc 4307 87bd 638d 02bc
00000390: a535 51bb 21d0 a53d 2a61 373d 2064 aebc
000003a0: 97b3 eeba bb99 17bd 38f3 75bc a781 e6bc
000003b0: db58 ecbc 357d 1e3d 2664 033c 21ed 7ebb
000003c0: 4e1b 923d 3fac 963b 39bf 57bd 98d3 18bd
000003d0: 054e bf3a a660 5fbd 3e17 afbc ed49 473b
000003e0: 6b3d 12bd a2b5 763d 9a7c 26bd ba82 abbc
000003f0: 52b5 8dbd a28f 6fbd ecf6 07bc dad5 a4bd

module.dense.3.bias f4 [100]
0.017373092 0.016451163 0.040694594 0.008513326 0.041541465 -0.012139465 0.041448556 -0.039765615
0.05265815 0.06728272 0.042937372 0.03801205 0.035069115 0.051643312 0.046888746 0.040927086
0.0536135 0.026227007 0.057607297 0.02644533 0.06076381 0.0044800863 0.039385505 -0.019752746
0.04711904 0.037265025 0.018013092 0.042204335 0.029670328 0.037923142 0.0063592126 0.043942183
0.019684598 -0.02736383 0.05079083 0.01096223 0.055492427 0.0417151 0.03295414 -0.122099504
0.04576597 0.060905177 0.03648925 0.022863148 0.053274415 0.027301578 0.025928395 0.022558158
-0.06183194 0.01847633 0.08036601 0.023463437 0.041363996 -0.041505955 0.027317736 0.035233803
0.065861866 0.04667442 0.003221243 0.036263894 0.059519794 0.05143718 0.04736687 0.03982145
-0.03154944 0.046179216 0.031814843 0.028154768 0.035724394 0.009360269 0.058928955 0.04834796
0.05627066 0.06938648 0.0077209743 0.06563689 0.03640524 -0.03325626 0.008494337 0.036002565
0.055997398 0.034765095 0.061248053 0.039133534 0.0155583415 0.030296503 0.032179184 0.041007012
0.043834597 0.05474348 0.0152872 -0.01301736 0.08404734 0.009476875 0.010649762 0.050271757
-0.065489605 0.028094493 0.031860076 0.030056639
00000000: 0452 8e3c 97c4 863c 60af 263d 7a7b 0b3c
00000010: 6227 2a3d 9be4 46bc f6c5 293d 45e1 22bd
00000020: 13b0 573d 86cb 893d 19df 2f3d 86b2 1b3d
00000030: a2a4 0f3d f087 533d 6a0e 403d 29a3 273d
00000040: d499 5b3d 05da d63c a1f5 6b3d e0a3 d83c
00000050: 79e3 783d b0cd 923b b252 213d 83d0 a1bc
00000060: e5ff 403d 36a3 183d 3190 933c 74de 2c3d
00000070: 300f f33c 4c55 1b3d f160 d03b b8fc 333d
00000080: 9841 a13c 1c2a e0bc 0c0a 503d ed9a 333c
00000090: 074c 633d 74dd 2a3d ecfa 063d 4e0f fabd
000000a0: 1975 3b3d b577 793d c075 153d 7f4b bb3c
000000b0: 4636 5a3d 8fa7 df3c c967 d43c e3cb b83c
000000c0: 7d43 7dbd ac5b 973c ef96 a43d 6536 c03c
000000d0: 4b6d 293d 2602 2abd 72c9 df3c 5251 103d
000000e0: 96e2 863d ad2d 3f3d 7d1b 533b 7389 143d
000000f0: 07cb 733d cbaf 523d c303 423d d11b 233d
00000100: fc39 01bd 6b26 3d3d 4850 023d d4a4 e63c
00000110: be53 123d d05b 193c 7d5f 713d 8308 463d
00000120: 107c 663d 801a 8e3d 3a00 fd3b a26c 863d
00000130: a91d 153d b737 08bd d52b 0b3c 6d77 133d
00000140: 875d 653d d865 0e3d 3ddf 7a3d 7c4a 203d
00000150: 6ae8 7e3c 5f30 f83c 52ce 033d f8f6 273d
00000160: e88b 333d b33a 603d 2a77 7a3c c446 55bc
00000170: 0321 ac3d e544 1b3c 577c 2e3c c2e9 4d3d
00000180: 6a1f 86bd 6c26 e63c b67f 023d 5739 f63c

module.dense.6.weight f4 [50, 100]
-0.0011154222 -0.0019229715 0.01745036 -0.010798728 0.006762106 0.00911083 -0.09381412 0.05509315
-0.03567319 -0.17382184 -0.117524154 0.049856775 0.04127922 -0.10400696 0.045814693 0.008553826
0.0052376566 -0.0037911723 -0.050146252 -0.004304005 0.01305651 0.026612042 -0.1863689 0.009618152
-0.11304216 -0.14122507 0.059858624 -0.09726855 -0.14840603 -0.06026602 0.06277035 -0.1476506
-0.0096302545 -7.097001e-05 -0.09764683 0.01798442 0.010550601 -0.19447847 -0.052903384 -0.012370244
-0.183912 -0.22463557 -0.18869059 -0.023588015 0.03208931 -0.020857858 0.0232979 0.006114098
-0.02476431 -0.025460983 -0.0018715735 0.0061685173 0.011238628 0.0050061103 0.06586871 -0.105425455
-0.04551754 -0.13324355 0.06663798 -0.059440494 -0.071242616 0.08662688 -0.2015957 -0.18790236
-0.08492656 0.05993536 -0.039173447 0.0027581328 -0.13230762 -0.002116475 0.027686724 -0.13701266
-0.11735499 -0.022376008 -0.0036487964 0.0037921816 -0.21422502 -0.12666905 -0.040987913 -0.09711719
-0.08122146 0.009249434 -0.02587822 0.05355248 -0.041530885 -0.024593582 -0.008252016 0.033230312
-0.15136512 -0.07272098 -0.013815318 -0.006306895 -0.14244832 -0.0027950138 -0.023325106 0.03522568
0.08967057 0.008931914 -0.0007382302 0.009519791 -0.14831023 -0.06532493 -0.014917302 -0.15630096
-0.040430002 -0.07696718 0.043435037 0.009457713 -0.01604452 -0.033811506 0.037303854 -0.05757561
-0.103994705 0.004507413 -0.106867135 -0.10430892 -0.029242814 -0.066280626 -0.049292 0.00050970766
-0.05121056 0.07035757 -0.04495667 -0.04136185 0.07191796 -0.009678354 0.055141576 0.016419789
-0.031425335 0.024632614 -0.022671763 0.06033221 -0.021310287 -0.029424991 0.061715167 -0.032847073
0.05297832 -0.020039972 -0.13561422 -0.017447487 -0.028621899 0.044310324 -0.05752804 -0.12746976
0.050878048 -0.08564131 -0.050537046 0.021921247 -0.08675581 -0.116939045 0.042134993 -0.1342159
-0.092964746 0.00044055033 -0.010285461 0.08857496 0.033413924 -0.0073928153 -0.07442594 0.05527344
0.046868566 0.048536606 0.05875863 -0.038333412 0.07237759 0.049112156 0.007473036 -0.16720088
-0.00946537 -0.2340397 0.015890136 -0.0020169457 0.033209875 -0.005336778 -0.04091787 0.045070242
0.03339093 -0.046495914 0.08711414 -0.005303566 0.0141471 0.007103618 0.029049706 0.06518612
-0.03308494 0.013355812 -0.1013205 -0.07214657 -0.005086987 -0.0020639366 -0.08267497 0.10625275
-0.058533188 -0.093719825 -0.008833832 -0.074939236 0.113630205 -0.13959438 -0.085223086 -0.06258041
-0.00084477797 -0.02486557 0.008362575 -0.0076103434 -0.002912275 -0.045205474 -0.17298126 0.042683635
0.053391192 -0.11119133 -0.17511986 -0.05045974 0.051641013 -0.04585307 0.03889316 -0.007968054
0.0017444941 0.00904457 0.07525593 -0.09183712 0.05054348 0.01260832 -0.065265834 -0.024581619
-0.10433889 -0.04503318 0.05136089 -0.100095816 -0.19173108 -0.022061579 0.04293764 -0.17924863
0.026897658 0.009390925 -0.15071261 0.012488511 -0.001196725 -0.16753434 0.03159511 -0.057130795
-0.08938571 -0.14555943 -0.16801454 -0.029977236 0.07179936 -0.0037472744 0.0037795946 0.0030459755
-0.06254234 0.0008655586 -0.009997743 -0.00035347222 0.0034351023 0.06194923 0.036029663 -0.11367892
00000000: 5c33 92ba 370c fcba 0ff4 8e3c 26ed 30bc
00000010: a894 dd3b 9745 153c 9e21 c0bd 5ba9 613d
00000020: 0d1e 12bd 5afe 31be 81b0 f0bd 9e36 4c3d
00000030: 6614 293d 9a01 d5bd 30a8 3b3d 5925 0c3c
00000040: a6a0 ab3b 5175 78bb 2866 4dbd 9c08 8dbb
00000050: f9ea 553c 7f01 da3c 7dd7 3ebe 7495 1d3c
00000060: a682 e7bd 4e9d 10be 512e 753d bc34 c7bd
00000070: c0f7 17be 81d9 76bd be8d 803d b831 17be
00000080: 37c8 1dbc bcd5 94b8 10fb c7bd 1054 933c
00000090: 6edc 2c3c 5d25 47be 38b1 58bd 90ac 4abc
000000a0: 6d53 3cbe de06 66be 1b38 41be a73b c1bc
000000b0: 1570 033d 19de aabc 3ddb be3c c558 c83b
000000c0: 86de cabc 8d93 d0bc 964f f5ba 4621 ca3b
000000d0: 3922 383c 4c0a a43b 2de6 863d 4de9 d7bd
000000e0: 9a70 3abd ff70 08be 7e79 883d e077 73bd
000000f0: a6e7 91bd 6f69 b13d 1a6f 4ebe 7a69 40be
00000100: faed adbd c87e 753d 5674 20bd cac1 343b
00000110: a67b 07be 8fb4 0abb 45cf e23c 0c4d 0cbe
00000120: d057 f0bd e44d b7bc a520 6fbb 4086 783b
00000130: ce5d 5bbe 88b5 01be f1e2 27bd 61e5 c6bd
00000140: 7057 a6bd f08a 173c 90fe d3bc d859 5b3d
00000150: 4a1c 2abd 7b78 c9bc 7733 07bc 821c 083d
00000160: 75ff 1abe bdee 94bd a559 62bc 12aa cebb
00000170: f9dd 11be 8d2c 37bb 4b14 bfbc cd48 103d
00000180: 34a5 b73d 2a57 123c ca85 41ba e6f8 1b3c
00000190: a3de 17be 14c9 85bd b367 74bc 5c0d 20be
000001a0: ee99 25bd f8a0 9dbd f0e8 313d 86f4 1a3c
000001b0: cc6f 83bc ef7d 0abd edcb 183d 67d4 6bbd
000001c0: 2dfb d4bd ecb2 933b 28dd dabd ea9f d5bd
000001d0: a08e efbc 23be 87bd 68e6 49bd e79d 053a
000001e0: 2ac2 51bd a117 903d 7c24 38bd 0b6b 29bd
000001f0: b949 933d f591 1ebc 22dc 613d cb82 863c
00000200: dab7 00bd 56ca c93c 22ba b9bc e81e 773d
00000210: e992 aebc ae0c f1bc 0bc9 7c3d a78a 06bd
00000220: cbff 583d de2a a4bc 74de 0abe 08ee 8ebc
00000230: 7978 eabc be7e 353d 86a2 6bbd 6f87 02be
00000240: 8065 503d b664 afbd efff 4ebd 3094 b33c
00000250: 08ad b1bd bd7d efbd be95 2c3d e56f 09be
00000260: 4d64 bebd aaf9 e639 5a84 28bc ca66 b53d
00000270: 0add 083d 6e3f f2bb a16c 98bd 6766 623d
00000280: 41f9 3f3d 52ce 463d e4ac 703d 7f03 1dbd
00000290: b43a 943d d429 493d 5fe0 f43b b536 2bbe
000002a0: a414 1bbc 1aa8 6fbe 082c 823c bc2e 04bb
000002b0: 1407 083d 23e0 aebb 7f99 27bd 939b 383d
000002c0: eec4 083d 8072 3ebd e668 b23d 89c9 adbb
000002d0: 3dc9 673c 77c5 e83b a6f9 ed3c 4d80 853d
000002e0: 1384 07bd 56d2 5a3c 1f81 cfbd 95c1 93bd
000002f0: bdb0 a6bb 1c43 07bb 7f51 a9bd 0b9b d93d
00000300: 7fc0 6fbd 2ef0 bfbd c7bb 10bc be79 99bd
00000310: f4b6 e83d d4f1 0ebe 7189 aebd 282a 80bd
00000320: 1774 5dba e1b2 cbbc 2f03 093c 3060 f9bb
00000330: dedb 3ebb 6029 39bd 0022 31be 09d5 2e3d
00000340: b9b0 5a3d 48b8 e3bd 9f52 33be dfae 4ebd
00000350: 8785 533d 6ed0 3bbd 6f4e 1f3d 718c 02bc
00000360: 82a7 e43a ad2f 143c c81f 9a3d 1a15 bcbd
00000370: ae06 4f3d 2193 4e3c 18aa 85bd 645f c9bc
00000380: a1af d5bd b674 38bd cc5f 523d 09ff ccbd
00000390: 2755 44be 7cba b4bc 61df 2f3d f48c 37be
000003a0: 7a58 dc3c 65dc 193c 6854 1abe 9d9c 4c3c
000003b0: 6ddb 9cba 1f8e 2bbe e069 013d fb01 6abd
000003c0: db0f b7bd 880d 15be 010c 2cbe d292 f5bc
000003d0: 8b0b 933d d594 75bb 13b3 773b fd9e 473b
000003e0: 3316 80bd a8e6 623a 93cd 23bc 3d52 b9b9
000003f0: 741f 613b 7abe 7d3d d793 133d 7ed0 e8bd

module.dense.6.bias f4 [50]
0.17661878 0.10744593 0.15796137 0.14030345 0.17425771 0.13125642 0.13115314 0.15946583
0.2337871 0.12352975 0.16605878 0.10858102 0.11710324 0.14938582 0.16180779 0.21538888
0.17610973 0.14599542 0.14696173 0.17669082 0.16831706 0.17957123 0.0919638 -0.10057089
0.19137509 0.13233478 0.123288594 0.11579825 0.20060737 0.1844528 0.1469712 0.1579004
0.17233856 0.16022696 0.12810487 0.099265724 0.16012935 0.14328589 0.14119433 0.13770086
0.17671366 0.1541945 0.11117197 0.13535392 0.13941766 0.11638922 0.15394787 0.10126266
0.13319321 0.18727642
00000000: 8edb 343e 9d0c dc3d a0c0 213e b5ab 0f3e
00000010: 9d70 323e 1568 063e 024d 063e 034b 233e
00000020: e365 6f3e 2afd fc3d 500b 2a3e ba5f de3d
00000030: d3d3 ef3d 99f8 183e f1b0 253e e78e 5c3e
00000040: 1c56 343e d37f 153e 237d 163e 70ee 343e
00000050: 4f5b 2c3e 85e1 373e 8457 bc3d 1cf8 cdbd
00000060: d5f7 433e c582 073e bb7e fc3d a227 ed3d
00000070: 056c 4d3e 32e1 3c3e 9e7f 163e a4b0 213e
00000080: 8579 303e 8912 243e ec2d 033e d44b cb3d
00000090: f3f8 233e 89b9 123e 3f95 103e 7401 0d3e
000000a0: 6df4 343e 2ae5 1d3e 21ae e33d 389a 0a3e
000000b0: 81c3 0e3e 795d ee3d 83a4 1d3e cc62 cf3d
000000c0: cd63 083e 64c5 3f3e

module.dense.9.weight f4 [1, 50]
0.20165975 -0.116624095 0.21672165 0.16603754 0.20052731 -0.13174854 -0.11267185 -0.087101445
0.16055861 -0.14105669 0.17966338 -0.11315957 -0.112460494 0.1810055 0.18909732 0.16543296
0.19767317 -0.11930068 -0.1456907 -0.09342301 0.23235738 0.19863072 -0.08950219 -0.034930054
0.124153085 -0.10493809 -0.075177684 0.10175164 0.10963029 0.20194313 0.2371029 -0.08195591
0.22149913 -0.14205465 -0.13325092 -0.10910023 0.22980462 -0.15018362 0.16570023 -0.12787221
-0.1241567 -0.10669094 -0.10088047 -0.11855992 -0.14017493 -0.09193663 -0.12946859 -0.10676339
-0.07035912 -0.07730866
00000000: e57f 4e3e 9dd8 eebd 48ec 5d3e bf05 2a3e
00000010: 0857 4d3e 17e9 06be 80c0 e6bd 3e62 b2bd
00000020: 7a69 243e 2a71 10be adf9 373e 34c0 e7bd
00000030: b051 e6bd 8159 393e baa2 413e 4267 293e
00000040: d66a 4a3e ea53 f4bd f12f 15be 9054 bfbd
00000050: 18ef 6d3e da65 4b3e ed4c b7bd d112 0fbd
00000060: f943 fe3d c8e9 d6bd c2f6 99bd 2a63 d03d
00000070: d885 e03d 2eca 4e3e 1acb 723e 80d8 a7bd
00000080: abd0 623e c676 11be ee72 08be f16f dfbd
00000090: e751 6b3e bcc9 19be 52ad 293e eff0 02be
000000a0: de45 febd c880 dabd 6b9a cebd 8bcf f2bd
000000b0: 048a 0fbe 4649 bcbd 6a93 04be c4a6 dabd
000000c0: 7118 90bd 0154 9ebd
