model/15/tcr_pmhc_model.pt (torch, 586101 bytes, 11 tensors)

module.pmhc_linear.0.weight f4 [1, 256]
00000000: 550a ad3c 5350 c7bc 0de7 f2bc c4e2 05bd
00000010: 0941 a3bb 05e8 c9ba 058f d03c c582 86bd
00000020: 8765 f83b af2d 47bd 3c50 843d 0bc6 453d
00000030: 07a8 febb 94e5 253d 00b0 c5bb cac2 b9bc
00000040: addf ed3c 7c00 a6bc 8adc 19bd c4a0 29bc
00000050: 8376 8f3d 99a4 b63d b266 02bc a194 1c3d
00000060: 0a2e 0f3b 6a11 4639 cce2 9a3c 8786 873d
00000070: b484 9f3c fef7 9cbb 104b b0bc 2fae bfbd
00000080: c811 ca3c 7618 d0bc a235 a8ba 4588 863c
00000090: 9495 ad3d 4a5f e2bd 0cb7 b8bc 57cf 29bd
000000a0: bd5a a7bd 1efb 293c 6af2 95bc 9fc2 573d
000000b0: a0fd 913d 4ced abbd efcc 5dbd 7026 5f3c
000000c0: 7b1a 2abd 191e b03d 050f 4fbd f3f9 7bbd
000000d0: 431b ab3d bd5e 19bd 69d7 a9bc 7d5a 69bd
000000e0: 7bca 133d 5382 5a3d 767f 7dbd d07b 9bbc
000000f0: 99c0 3a3b 7bf0 20bc c631 87bd 8e8e 46bd
00000100: bcc2 873c 8e22 7a3d 474d 71bd 8430 a4bb
00000110: 778d 3b3d 694e febc e587 10bd 30fd 1d3d
00000120: 8384 643d 0ad5 b7bc e88d b13d 4b39 5e3b
00000130: 18c6 853d 1dfb 04bd a9ba 15bd 1196 1b3d
00000140: 4f1f b43b e2d3 b0bb 5bca 46bd 0077 553d
00000150: 7fd0 693d de82 2cbd afec 863b 1357 2abc
00000160: 154d 26bd 2e90 06bc ef1e 8ebc 972b de3c
00000170: a533 683a 4adb 6dbb 7baf 10bd 5da2 b73c
00000180: 671f 9c3c d001 abbc 7920 763d 7b16 95bc
00000190: 01a5 f3bb 78f2 973d 8e1e f4bc b36e 39bc
000001a0: 7645 b0bd 63d9 d63a 88c3 21bd 3c3a 66bd
000001b0: 23f4 2abc b5bd 03bd 02f4 bebb 6b7f 473d
000001c0: f8ee fa3d 0fd4 e43c 844a a03c aed5 66bd
000001d0: 204d 373d bb97 6c3c 0688 5a3d 8c72 71bd
000001e0: 427c 723d 7f77 9a3c 3b31 753d 7fa5 43bd
000001f0: 8829 bd3c ae92 713c 38e3 723d ac78 e0bc
00000200: 6e0a 2bbd 2a34 b23b cfb8 91bc 8edd 173d
00000210: c18b 70bb b0e8 e43c ba48 a1bd 7dac 6a3d
00000220: dcd0 2fbc 87e0 6e3c c994 9abd cfe2 a6bc
00000230: f1f4 023d 5404 31bb 373c 0c3d 5614 303d
00000240: f50b 60bd aeb4 a4bc 15a1 f2bb 9c1c da3d
00000250: 05f3 0ebc ec1a d13a 8644 0ebd fedd 90bb
00000260: 69bb c7bc f0f9 193d 30e6 b63c 2825 a1b8
00000270: efa2 853c 83e3 863d f4e7 3b3d c871 183d
00000280: 8a19 6a3c 931b 59bd 34b5 3b3d 0a5b 32bd
00000290: 5d9f ec3c 8250 753d 47f9 1a3d d1b3 7fbd
000002a0: f98b a4bd 31f0 32bc d499 bebc 23d6 773d
000002b0: 83cf 2c3d ff73 5fbd 0329 903b 42ef 28bc
000002c0: 5004 c7ba 5d89 b43d fd84 323d 2b0c 88bd
000002d0: bdaa a6ba e1ec 52bc 48c9 99bd e645 4e3d
000002e0: f803 febc 22f7 9cba d02f 373d a5f1 15bd
000002f0: cdce 1dbc a595 0cbd 5ee8 90bc 9cba d1bc
00000300: 7899 f4bc a6b4 7e3c 847b 34bc 3f64 61bd
00000310: 2890 88bd af78 663d 57c3 cbbc 0264 173d
00000320: 8b42 cd3d 8f07 833d 8166 53bd 5004 b83d
00000330: e9c7 86bd a65e b63d 1d55 cf3b a665 23bd
00000340: a547 2f3d 7718 6c3d f65d 103d daff 1abc
00000350: 6ceb 89bd fab0 5f3d 34b3 e73c 271f 1b3d
00000360: 1ceb 5c3c 684e d33c 8d29 b6bd dc12 ebbc
00000370: d8a2 8fbd f6fa c8bc 2832 5a3d 64c1 95bc
00000380: 63fb 64bc 9cb6 2cbd e6ba 6d3d 50e3 00bd
00000390: 5d87 343d d2f6 8cbd 6628 713d 3b5a 953c
000003a0: 9859 903d e885 a63c 8a57 2fbd 7103 343d
000003b0: 9930 abbc 8f29 683d 2d54 2dbc 2458 44bd
000003c0: d28e 63bd 9e4d 643c 2e0c 93bc f603 eabc
000003d0: f9b3 24bd c3cd 993c ad2e dbbb a984 e5bb
000003e0: b0b6 203d 5299 2ebd 6dd4 07bd 31f0 9d3d
000003f0: e1a2 33bd d3fe eb3c 650d 33bc c1fd cfbd
0.02112309 -0.024330294 -0.02965119 -0.032686964 -0.004982118 -0.001540423 0.025458822 -0.06567911
0.0075804624 -0.04862755 0.06460616 0.04828457 -0.0077714953 0.040502146 -0.0060329437 -0.02267589
0.029037321 -0.020263903 -0.037563838 -0.010353271 0.07005026 0.08918113 -0.007959055 0.03822768
0.002184751 0.00018889239 0.018906973 0.06617456 0.019472457 -0.004790305 -0.021520168 -0.09359395
0.024666682 -0.025402289 -0.0012833367 0.0164224 0.084757954 -0.11053331 -0.022548221 -0.0414575
-0.08171604 0.010374812 -0.018304069 0.05267584 0.07128453 -0.0839487 -0.054150518 0.013620004
-0.04152916 0.08599491 -0.050551433 -0.061517667 0.08354809 -0.037443865 -0.020732598 -0.056971062
0.036081772 0.053346943 -0.061889134 -0.018979937 0.0028496145 -0.00982296 -0.066012904 -0.048475794
0.016572349 0.06106811 -0.058911588 -0.0050106663 0.04578921 -0.031043248 -0.03528585 0.038571537
0.055790436 -0.022440452 0.086696446 0.003390866 0.06531924 -0.032466043 -0.036554966 0.03798491
0.0054968963 -0.005396352 -0.048532825 0.05211544 0.057083603 -0.042116992 0.0041175704 -0.010396737
-0.040600855 -0.008213086 -0.017348735 0.027120395 0.00088577933 -0.0036294037 -0.0353236 0.022416288
0.019057943 -0.020874888 0.060089562 -0.018199196 -0.0074354415 0.07419294 -0.029799726 -0.011317897
-0.086069986 0.0016391691 -0.039493114 -0.05620788 -0.010434183 -0.03216334 -0.005827428 0.0487055
0.12252611 0.027933149 0.019566782 -0.056356125 0.044751287 0.014440472 0.05335238 -0.05894713
0.059200533 0.018855808 0.059861403 -0.04776525 0.023091093 0.014744444 0.059298724 -0.02740129
-0.041757993 0.0054383473 -0.017788319 0.037076525 -0.0036704394 0.027942985 -0.078751996 0.057293404
-0.010730948 0.014579899 -0.0754791 -0.020371823 0.031971876 -0.0027010636 0.034237113 0.042988144
-0.054698903 -0.020105686 -0.0074044564 0.10649988 -0.008724933 0.0015953458 -0.034733318 -0.004420995
-0.024381356 0.037591875 0.022326559 -7.683999e-05 0.016313044 0.06586363 0.045875505 0.037217885
0.014288316 -0.053004812 0.045827106 -0.043543853 0.028884584 0.05989123 0.037835386 -0.062427346
-0.0803451 -0.010921524 -0.02326671 0.06050695 0.042190086 -0.054553982 0.00439942 -0.01031095
-0.001518378 0.088152625 0.04358386 -0.06642946 -0.0012715679 -0.012873859 -0.075090945 0.05035963
-0.031007752 -0.0011975507 0.044723332 -0.036607403 -0.009631825 -0.0343224 -0.017688926 -0.025601678
-0.029858336 0.015546 -0.011015777 -0.055027243 -0.066681206 0.056267437 -0.024873419 0.03696061
0.10022458 0.06397926 -0.051611427 0.089851975 -0.065810986 0.089047715 0.006327285 -0.03989186
0.042792935 0.05764052 0.035245858 -0.009460414 -0.06734356 0.054612137 0.028283693 0.037871506
0.013483789 0.025794223 -0.08894644 -0.028695516 -0.07013482 -0.02453373 0.05327049 -0.018280692
-0.013975951 -0.042166337 0.05803957 -0.031466782 0.044074405 -0.06883015 0.058876418 0.018231502
0.07048339 0.020327523 -0.042808093 0.043948594 -0.020897197 0.05668026 -0.010579151 -0.04793562
-0.055556126 0.013934521 -0.017950144 -0.028566342 -0.040210698 0.018774873 -0.006688914 -0.0070043397
0.039236724 -0.042626686 -0.03316157 0.077118285 -0.043856505 0.028808033 -0.0109284865 -0.101558216

module.tcr_linear.0.weight f4 [1, 256]
00000000: e10f dbbc 1cfe 093b ebdd 8f3d 9d9c c93c
00000010: cde3 6ebd a0c9 613d fdea bdbd 9f60 163c
00000020: ae42 cfbb 30ca 013d 4572 ac3d 3639 de3b
00000030: 7115 993b 9a4e 68bd c7c0 4fbd 2caa 843d
00000040: 9819 fcbc 94ec a0bd 56e6 cd3b 3133 3f3d
00000050: 37be 03bb fa74 f5bb ae0b 03bd 1860 313d
00000060: 32ce 1a3e 0492 393d 4336 793b a831 a5bd
00000070: a985 143e ffcc 35bd 1c5f 053c 06c2 06bc
00000080: 28de 21bd 328e 5ebc 8035 8abc bb60 4a3d
00000090: cafb 9dbd f37a a9bd b0dd 56be 970b abbd
000000a0: a235 813d 060f 203d 00f4 cdbc 32df 233d
000000b0: 4153 073d 6aa3 323d e7b9 c63c bdc0 b03d
000000c0: bc77 0d3e 2add 76bc 9d54 e23c 7479 c7bd
000000d0: bbac 8c3c f3f6 1b3c 42be fd3a e45f 05bd
000000e0: 63f3 8d3d f7cc 10bd 097b 383e dfa7 803d
000000f0: e087 09be d0bb 323d f2d0 0bbc 3f3a c13d
00000100: df08 77bd 622b d83c 0e17 90bc a902 d2ba
00000110: 905b 71be c3bc e63b ffdb 533d 0be9 a1bd
00000120: 5e84 d03c 6fbe ac3d 5f8f 0ebd 5b9e c63b
00000130: 7618 0f3d cce8 8abd 0c67 b93c cff6 8a3b
00000140: 8212 01bd 9e14 f63c aae8 213b 10c7 233d
00000150: f31d f1bc 8eaa 5a3d 5eb3 89bc 760b b6bd
00000160: 89a5 223b b175 b43d 7449 84bd 4402 83bc
00000170: cf33 083d b514 b0bc 0cbd 2ebb eb75 36bc
00000180: 0bbe 273d fa88 f8bc c697 ce3c 1627 a03d
00000190: d8a8 043c accf e8bd c4f3 e5bd 4b82 86bd
000001a0: c435 babd 41a5 5a3d c27a 88bd 3fa2 52bd
000001b0: 2456 49bd e00b 003c 221b 31bd 9b08 253d
000001c0: be51 933d 7c33 debc 625a 1cbc b8a7 453d
000001d0: ed67 183d 515b 033d 240c e8bb 9069 50bd
000001e0: b9a5 5a3e b0d3 953d 780d 33be 8e05 8abd
000001f0: 9c93 fcbc eab1 69bc f66b 833d 6042 cdbb
00000200: ca7c e23d c6ef 4dbd f3fc c53d 97eb 7fbd
00000210: 438f a73a afd4 0dbd 1989 a5bc 6545 a9bd
00000220: 9bae 1e3c f642 efbc 6c3a 8b3d 5f78 873d
00000230: c17b 1bbc f758 ca3d a06f 84bd f7c1 b5bd
00000240: 925f afbc 1c4d b13c 0efc 523b 2679 4ebd
00000250: 156f 1a3d cf1f a4bd 0522 16bd 5637 80bc
00000260: 8f75 59bd 4e59 93bd 85c6 833c 31ea 81bd
00000270: 4c36 2f3d 8f48 b43d 7a20 93bd 57b9 67bd
00000280: d4e0 00bd 740f c93c 1040 69bd d85f 43bd
00000290: 29f7 13bd 98f3 3f3c 47ae 90bd 6ddb 92bb
000002a0: 17d5 8bbb 1315 8dbb e592 f03b 0713 20bd
000002b0: 6d42 bcbc ed1b 813d c873 853d bc56 0d3d
000002c0: 1d25 2a3d 7793 0dbe 00e2 4abd 9f9a 18bd
000002d0: 393c 363c 1c23 0dbb 4b08 8c3d c469 433d
000002e0: 1c81 cf3c ec6d a43c a6e0 a53c 4820 53bd
000002f0: 0cf2 d6bd 2736 d83c b3b9 86bb 665c 99bd
00000300: 43f3 7ebd 2351 9b3c d452 b3bd edcb 7b3d
00000310: 9b85 11bc 878f 94bc b9d2 5a3d c410 50bc
00000320: 5031 07be 978f 88bc 5b68 1e3b b827 1c3c
00000330: 2d6e a73d 2ef3 cbbc af0a b33c d7db 86bc
00000340: 341d bcbd b991 e3bd 5eba ae3c f920 403d
00000350: 04e8 27bd 2c7c 0b3d 52c3 a23d 95aa c83c
00000360: d17f b43d 3609 5dbc cba4 dfbd e546 6bbc
00000370: a561 a13c f497 91bd dbd9 503b 8e9f 7dbd
00000380: 76fd df3c d9fe 613c 662f f33c 6fa0 fcbd
00000390: a3ed 5fbd 408d 50bc 333c 76bc 8537 5cbd
000003a0: a1a1 81bd 61cd 01bd fd1f f9bd 40ea a53d
000003b0: 8d41 1e3d 6dd6 54bd 1422 94bd 0f65 80be
000003c0: 640e 593d c297 8f3d 76bd b6bd f71e a3bc
000003d0: 3541 2ebd 973f 7cbd 40a8 113d 9fdc 95bc
000003e0: b7af 413d df13 38bd 4dab 2dbb 378a 92bd
000003f0: d29d bbbd ca43 b73c 639c 2b3c 040c 7f3d
-0.02674097 0.0021056002 0.07024749 0.024610812 -0.058322717 0.055123925 -0.09273336 0.00917831
-0.0063250875 0.03168696 0.08420233 0.0067817224 0.0046717455 -0.056715585 -0.050720956 0.0647777
-0.030773923 -0.07857624 0.0062835617 0.04667968 -0.002010239 -0.0074907513 -0.03199356 0.043304533
0.1511772 0.045305267 0.0038026727 -0.08066112 0.14504112 -0.044384953 0.008140352 -0.00822497
-0.039518505 -0.013583707 -0.016871214 0.049408656 -0.077140406 -0.08275404 -0.20983005 -0.0835182
0.06309058 0.039076827 -0.025140762 0.040007778 0.03303838 0.043612875 0.024258567 0.08630512
0.13815206 -0.015067378 0.027628237 -0.09739962 0.017172208 0.0095193265 0.0019359069 -0.03256215
0.06931188 -0.03535172 0.18015684 0.06282019 -0.13430738 0.043636143 -0.008533703 0.09434938
-0.060311195 0.026387874 -0.017589118 -0.0016022521 -0.23570085 0.007041545 0.051723476 -0.079057775
0.025453743 0.0843476 -0.034804698 0.006061358 0.034935437 -0.06782684 0.022632144 0.0042408477
-0.03151179 0.030039128 0.002470533 0.039984763 -0.029433226 0.05338531 -0.016809162 -0.08888905
0.0024817905 0.0881151 -0.064593226 -0.015992291 0.033252534 -0.021494249 -0.0026662974 -0.011136512
0.040952723 -0.030338753 0.025218856 0.07819955 0.008096896 -0.11367735 -0.11228135 -0.0656782
-0.09092286 0.053380255 -0.06664039 -0.05142426 -0.049154416 0.007815331 -0.043238766 0.04029141
0.071933255 -0.027124159 -0.009543033 0.048255652 0.037208486 0.032069508 -0.0070815254 -0.050881922
0.2135228 0.07315767 -0.17485607 -0.06739341 -0.030832104 -0.014263609 0.06417076 -0.006264016
0.11058958 -0.050277494 0.09667387 -0.062480535 0.0012783784 -0.03462666 -0.020206975 -0.08265189
0.009685184 -0.029206734 0.067982525 0.06614756 -0.009489954 0.0988025 -0.06466603 -0.088748865
-0.021407876 0.021643214 0.0032193693 -0.050408505 0.037703592 -0.080138795 -0.036653537 -0.015651386
-0.05309063 -0.07194768 0.016085872 -0.063434966 0.04277639 0.08802902 -0.07183929 -0.05657324
-0.031464413 0.024543501 -0.05694586 -0.047698826 -0.036124382 0.011715792 -0.07064491 -0.004481724
-0.0042673456 -0.0043054908 0.00734173 -0.039080646 -0.022980893 0.063041545 0.06516224 0.034506544
0.0415393 -0.13825785 -0.049531937 -0.037256833 0.011122757 -0.002153582 0.06837519 0.047708288
0.025330119 0.020071946 0.020248722 -0.051544458 -0.104953855 0.02639301 -0.0041114925 -0.07488327
-0.06224371 0.018959587 -0.087560326 0.061473776 -0.008881952 -0.018134845 0.053423617 -0.01269931
-0.13202405 -0.016670031 0.0024171087 0.009530954 0.08175311 -0.02489623 0.02185568 -0.01646225
-0.091852576 -0.11111779 0.021329101 0.046906445 -0.04099275 0.034053966 0.07947411 0.024495402
0.088134415 -0.013490966 -0.10920104 -0.014360164 0.01969988 -0.07109061 0.0031868133 -0.06191974
0.02734254 0.013793671 0.029685687 -0.12335288 -0.054669987 -0.012728989 -0.015029001 -0.053763885
-0.063296564 -0.031690005 -0.121643044 0.0810132 0.038636733 -0.051962305 -0.072330624 -0.25077102
0.05299224 0.070113674 -0.089228556 -0.019912226 -0.042542655 -0.06158408 0.035560846 -0.018293677
0.047286715 -0.044940826 -0.0026499808 -0.07155269 -0.09160961 0.022371192 0.010474297 0.06226732

module._pmhc_linear.0.weight f4 [1, 54]
00000000: 31d9 ff3c 56d5 5c3c c0dc 3dbd 1df3 44bd
00000010: 3694 9ebd 8d37 abbc 3680 273c 5c73 c7bc
00000020: c8b3 333d 8f7b d6bc a527 493d e8ae 81bd
00000030: 7e56 15bd e266 82bd 0177 ee3d 7afd 59bc
00000040: c290 f03c c16f 45bd 21a7 0e3d da82 003d
00000050: 4823 e8bc 8a3e 04bd c233 20bd 84d4 a1bc
00000060: 7174 99bd 0dc6 17bd 88db 943d ccb6 923d
00000070: d8dc 783d 05fb 03bc f93d 2cbd 9e8e 7c3c
00000080: b67f 223d 616e 833d 6892 c6bd d4eb db3d
00000090: 1f16 85bb e617 c83d 7fed d938 f782 193c
000000a0: 3ce7 633d 1229 20bd dffe dc3d 08e2 193c
000000b0: c327 4ebd 829d 96bd 29db 693c d499 413a
000000c0: bb14 7e3d 77b8 8cbc 6166 08be 7fbe aabb
000000d0: 1bd8 8bbd e54c cb3d
0.031231495 0.013478598 -0.0463531 -0.048083413 -0.07743113 -0.020900512 0.010223439 -0.024347
0.043872625 -0.026181964 0.049110074 -0.06332189 -0.03645944 -0.063672796 0.11643792 -0.013305062
0.0293659 -0.04820228 0.034827355 0.03137479 -0.028337136 -0.032286204 -0.03911186 -0.019754656
-0.074929126 -0.03705411 0.07268435 0.07163772 0.060757488 -0.008055453 -0.04205129 0.015414862
0.039672576 0.064175375 -0.096958935 0.1073834 -0.004061475 0.09770183 0.000103916034 0.009369603
0.055640444 -0.039101668 0.107908 0.009392269 -0.05033089 -0.07354261 0.014273443 0.0007385288
0.06203149 -0.017177803 -0.13320304 -0.005210697 -0.06828328 0.09926776

module._tcr_linear.0.weight f4 [1, 30]
00000000: 402f 943b 81d7 93be 7d8d a8be 05bc 073d
00000010: 1e1f bb3d 92ed 413e 0a30 ac3d d4c7 293e
00000020: 0f21 d63d 052e fa3c ef01 09be 2a89 4cbd
00000030: dcad 13be 55d4 27be 7dc1 bbbc dd33 643d
00000040: cb27 4cbd 3043 f5bd bad8 5c3d b6cb 3fbe
00000050: 10c7 49ba c433 29bd 563c 46be 8b40 e63d
00000060: 0a1c f03b a92b f93d 02e9 a4bd 66ed 143e
00000070: a325 10be b8b5 e53d
0.004522234 -0.28875354 -0.32920447 0.033138294 0.091367945 0.18938282 0.084076 0.16580135
0.10455524 0.030539522 -0.13379644 -0.049935497 -0.14421791 -0.16389592 -0.02291941 0.055713523
-0.049842637 -0.119757056 0.053917624 -0.18730053 -0.0007697204 -0.041309133 -0.19358954 0.11242779
0.0073275613 0.12166531 -0.08052255 0.14543685 -0.14076857 0.11216301

module.dense.0.weight f4 [200, 596]
00000000: a6f2 2cbd fb33 9f3d 934f 4bbd 8373 7abb
00000010: ff8d 0f3c 8f3a 42bd fa77 6cbc 1848 113c
00000020: e589 6ebd 9d39 e83c 36f8 a2bd 5d93 a3bd
00000030: cc55 80bd 8975 333d 00eb 833c 60d3 05bb
00000040: b85c b4bd b0dd 82bd 0cc5 023c c0f6 403d
00000050: fdcd 9abc 9916 c0ba 6816 7d3b 9661 52bd
00000060: 4a82 71bc 2a1f 51bd 0d4b cfba df78 26bd
00000070: 2aee 4ebd f3aa c4bc ccdf 4c3c 186d 153e
00000080: 8568 53bd 1ef7 8b3c ee9d 80bc b8f7 15bc
00000090: 605c 3b3b 95b3 273d 7a2a 3a3d d94f abbd
000000a0: a8a5 163d d7fa 48bd 7fea 633d e219 4d3d
000000b0: 8048 053d 3de5 ea3c 8289 573d 2f89 af3c
000000c0: 0299 1c3d 830a 393c 48b8 96bb 4502 c43d
000000d0: 0247 d73c 3e52 0e3d daf2 de3c c1c3 3abc
000000e0: a6db 02bd 1e84 a03d 2bce babc d6ae 3cbd
000000f0: a1ff cf3a ce5d c63d 07ab df3d 0da7 1d3d
00000100: 5be7 b03c 3e27 e6bd cb73 673d fbd0 36bd
00000110: 688d d13b 3262 7b3d 0714 2e3c e0b9 073d
00000120: e9d5 6d3d 3af1 6e3d cf4a 71bc 4def 16bd
00000130: 0511 89bd d448 05bd 9db2 8b3d b6ff 89bd
00000140: 6c9f 4c3d 77a8 4b3c d706 9dbc 2e71 a73c
00000150: 80de c7bb 5528 d9bc dc30 283c d08f 78bc
00000160: b944 fe3c fdb2 b03c bc01 b9bb 3a1a e73c
00000170: 8156 863d ac97 01bd 1b80 283c ba83 fcbc
00000180: 09ad 02bc ee05 c23d 6f49 c8bd d752 41bd
00000190: ff63 37bc 162b 0cbd aff2 1a3d 28e6 e73c
000001a0: e0fc dcbd bb2f 8a3c 7aaf 2ebc 2a79 a63d
000001b0: e29a 6e3d 0fa2 dcbc be13 443d bdfa bebd
000001c0: bdcb f4bc 8fec ecbd 6968 033d 8cc9 27bd
000001d0: 1e04 43bb 66a8 b83c 6f41 0f3d 4572 a6bd
000001e0: 980b 753c ce8b 5ebd 0631 86bd 8084 a03d
000001f0: b901 cfbc 197c b83b 01b9 5f3c 6c8e a63c
00000200: 3696 73bd 443e b53b 9f10 8fbb bd21 babc
00000210: e59f d83c 8726 17bd 552d e53c 5778 cabc
00000220: 315f 44bc 7bd9 1ebd cc48 44bd 7df3 633d
00000230: 20d1 c5bc f354 acbc 6da3 603d af38 d83c
00000240: bc3c 523d ba51 acbd 58df 1e3a c69c ee3d
00000250: 0eac 4fbd 61a9 7c3c 29e5 633c 684b c4bc
00000260: 8985 8f3c 777d dc39 6296 e5bb b7ec 283c
00000270: 4bc8 c03d f425 81bb dd47 023c bcf9 023b
00000280: 4830 d63b f67f adbc 2f66 48bd 83cd 19bd
00000290: d741 71bc 48ef 293d 5f8b 57bd 9747 d93c
000002a0: 3d51 cb3c e999 233d a6f7 10bd 8fed 353d
000002b0: 410f 16bc 1a1d 083c d84f 08bd f997 fc3c
000002c0: 14c0 fc3c 0dba 9f3c b4bd fc3d ae7d f1bc
000002d0: 7fea 33bd e565 b43d 781f 973d 485e 12bd
000002e0: 533c 1c3d 06a4 6a3c edba bdbc ff43 d43d
000002f0: 926b 9f3b 6f5b c43c 1f45 b73c b2f0 213d
00000300: 6205 2dbc c397 9c3c 430d 19bd da50 2ebd
00000310: b899 0a3d 8c42 ce3a 65c4 8e3b 3f5d 0f3d
00000320: bfd2 9cbc 73e4 1fbd 5839 92bc 4f67 eebc
00000330: a59e 02bd b406 73bd 991d 0dbd 1ccf ad3c
00000340: 3add 13bd e04b 4f3c 1537 cd3b f622 a1bc
00000350: 256e 833d 3539 1abc e0fc ad3c 8e97 9e3c
00000360: fe7a f8bb 53d7 133d e6e7 333c 77ed b4bb
00000370: c64b 2ebd 0b0c 2bbd b1f5 9bbd 1cef 3dbd
00000380: 091a 693b 4f3f 9d3d 905e ffbb 62bf 87bd
00000390: 1eef 523c 3d21 21bc e984 863c aab8 2b3d
000003a0: a559 37bd 7e02 cb3d d4ef 31bc 1524 e439
000003b0: 4123 82bc acb4 0c3d 699b 6a3d 0001 18bd
000003c0: f3c9 d33c 55dd 313c 887d 513d 283c 2b3d
000003d0: c41f 4cbd 2e4b 23bc 0d7a f7bd fbc5 913d
000003e0: ab27 f7bb cb1a bcbc 4cf7 8fbb 4e08 e7bb
000003f0: bd8b a53a eaec b4bb 6138 bebc edf0 55bd
-0.042223595 0.07773586 -0.049636435 -0.0038215823 0.008761882 -0.047419127 -0.0144329015 0.008867286
-0.058236975 0.028347785 -0.07957499 -0.07987092 -0.062663645 0.043813262 0.016103268 -0.0020420179
-0.08806747 -0.0638994 0.00798155 0.04711032 -0.018897051 -0.0014655172 0.0038618091 -0.051362596
-0.014740536 -0.05105511 -0.0015815214 -0.040642615 -0.0505201 -0.024007296 0.012504529 0.14592397
-0.05161335 0.017085608 -0.015700307 -0.009153299 0.0028588995 0.040942747 0.045450665 -0.08364839
0.036779076 -0.049067345 0.055643555 0.050073512 0.032539845 0.028673762 0.052621372 0.021427719
0.038231857 0.01129401 -0.0045996048 0.095707454 0.026278976 0.0347464 0.02721541 -0.01139921
-0.031947754 0.07837699 -0.022803387 -0.046065174 0.001586903 0.096858606 0.10921293 0.03848939
0.021594694 -0.112379536 0.056506913 -0.044632893 0.0063950308 0.061372943 0.010624892 0.03313625
0.05806533 0.05833552 -0.014727308 -0.03684931 -0.06692699 -0.032540157 0.06821177 -0.06738226
0.049956724 0.012430302 -0.0191683 0.02043971 -0.006099522 -0.02650849 0.010265555 -0.015171006
0.031038629 0.021569723 -0.0056459587 0.028210748 0.06559468 -0.031638786 0.010284449 -0.03082453
-0.007975825 0.09473787 -0.09779631 -0.047198143 -0.0111932745 -0.034220777 0.037829097 0.02830799
-0.107904196 0.016868463 -0.010661954 0.08128579 0.058253177 -0.026932744 0.04787039 -0.09325168
-0.029882306 -0.115685575 0.032081995 -0.040963694 -0.0029757093 0.022541236 0.03497451 -0.08127264
0.014956377 -0.054332547 -0.06552319 0.07837772 -0.025269376 0.005630028 0.013654948 0.020331584
-0.059469424 0.0055311043 -0.004365995 -0.022721166 0.026443431 -0.036901977 0.027975718 -0.024715586
-0.011985586 -0.038781624 -0.047920987 0.05565213 -0.02414757 -0.0210366 0.054843355 0.026394216
0.051327452 -0.084140256 0.00060605025 0.11650996 -0.050701194 0.015421242 0.0139096165 -0.023961738
0.01751973 0.00042055149 -0.0070064524 0.0103103435 0.09413203 -0.003941292 0.007951704 0.001998528
0.0065365173 -0.02117918 -0.048925575 -0.037549507 -0.01472517 0.041487962 -0.05262315 0.026523395
0.02481901 0.039941702 -0.035392426 0.044416007 -0.00915891 0.00830772 -0.03327927 0.030834185
0.030853309 0.019497896 0.123408705 -0.029478874 -0.043924805 0.08808497 0.07379049 -0.035734445
0.038143467 0.014321333 -0.023160422 0.10364532 0.0048651183 0.02396938 0.022371827 0.039536186
-0.010560365 0.019115334 -0.037366163 -0.042557575 0.033838004 0.0015736385 0.004356908 0.035001036
-0.01914346 -0.039036226 -0.01784961 -0.029101996 -0.031889576 -0.059332564 -0.034452055 0.021216922
-0.03609965 0.012652367 0.00626267 -0.019669991 0.06417493 -0.009413053 0.021238744 0.019359376
-0.007583021 0.03609402 0.010980582 -0.005521472 -0.042552732 -0.041759532 -0.07615221 -0.04637061
0.0035568497 0.07678091 -0.007793255 -0.066283 0.012874393 -0.009834585 0.016420798 0.041924156
-0.044763226 0.09912585 -0.010860402 0.00043514432 -0.015885951 0.03435199 0.057277117 -0.03711033
0.025853133 0.010855992 0.051145107 0.041805416 -0.04983498 -0.009966655 -0.12083826 0.0711784
-0.0075425706 -0.022961995 -0.0043934938 -0.0070505505 0.0012630146 -0.0055214064 -0.023220243 -0.052231718

module.dense.0.bias f4 [200]
00000000: a522 6d3c 8bb5 923c 5e8f 5fbc b104 2cbc
00000010: 0f38 e23b 331b c2ba fce0 25bc 85f6 beba
00000020: ea69 5cbd 39c7 cdbc 459c 03bd eda3 59bd
00000030: c8c0 34bd a6b9 d1bc b960 c3bc 4b67 353d
00000040: de5e 00bb df07 12bd 90ac 20bd 6651 273d
00000050: c439 943b afe0 b2bc 1c13 173d 49e0 15bd
00000060: 1483 b13b 76b8 43bc e039 17bd 174c dfbb
00000070: 29aa e0bc c8fd 1f3b 8032 e6bc 93b4 debc
00000080: f35a 3fbd 6ea2 2b3c 5888 4abd 1259 58bd
00000090: a3e3 9ebc 5935 b9bc adc9 82bd 0783 723c
000000a0: 91c6 26bd 6fa5 3abd 1d17 313c e611 a1bc
000000b0: 6226 a43b 7fbb 2ebd b63c 40b7 e77b 0fbd
000000c0: 9677 87bc bfc5 8c3c 11af 29bd dbf8 75bc
000000d0: 3a35 45bd 30de 06bb b3e0 9cbb f69f a13c
000000e0: 1543 c83b 1713 26bd 2c31 91bb 351c c13c
000000f0: a57a 91bd 797a 8dbc 8c23 25bd 2e31 bfbc
00000100: defb b63c 8bd1 b43c 4066 81bd 3668 c4bc
00000110: 8abf e8bc 1f49 66bd 64b7 24bb e618 19bd
00000120: 31e1 dbbc ec6d 90bc bf1a dc3c 644a 15bd
00000130: 9d25 423c ebc4 9eba a7f6 a63c e7b1 f03c
00000140: 502d 143c 435b 7d3b 1c4d 0cbd 57ae 1cbd
00000150: 6d50 53bc 49c6 19bd a79a 35bd c4f3 c2bc
00000160: 872b 29bd bf82 68bc 6087 39bd df5e ce3c
00000170: 37e0 11bd cc56 793c 94c6 153d 7fb3 6cbc
00000180: 79ad 3cbb e890 4dbd 35e8 98bc c16b d1bc
00000190: e4f2 0e3c c6bb 01bd fcf7 94bc b4a3 7d3c
000001a0: 8f50 c33c 6b4f 33bc 0b40 12bd b45e a9bc
000001b0: 2a1a 223d 15d1 07bd c62b efbb 08fd 86bd
000001c0: 40a9 13bc fd8f fbbc 0725 8bbd 919f 9e3c
000001d0: d38c f2bc 8622 35bc 5cbf 87bc 2bac 313c
000001e0: 924f 1d3d 4f12 8bbc 0f68 18ba 67a3 b4bd
000001f0: 5b04 b83c 3be2 c13b f2f7 f63c 238e 0cbc
00000200: 6ee4 4bbc d329 373c 821c 05bd a979 653c
00000210: c031 d93c 4832 7bbd 04b3 513c dc22 06bd
00000220: 03a0 79bd 0247 363b d4dd f0bb 6b19 f738
00000230: 1a22 bfbc 4f01 4abd 3a5d 5bbd 669c f33c
00000240: c57e 323d d9c7 8e3c 3565 de3c cf40 49bd
00000250: 6afe abbc cad0 5c3b cec4 20bd d52c c2bc
00000260: 19b2 b93a 3271 b5bc 8466 69bc f3d6 573b
00000270: eb5b 3bbd 1e17 be3c 9668 99bc 6416 96bc
00000280: 25b3 dd3b f038 44bc 2e95 4d3b 2e31 2ebc
00000290: b0a4 43bb 2efe 31bd b81f edbc 8f56 22bd
000002a0: 29c1 d3bb 595b 1abd 2f36 7e3c cfcc ccbb
000002b0: a50a e53c 126f 38bd baa1 113c afcc 133c
000002c0: 99ce 2dbd 7688 6f3b 1e95 d9bc c1e3 20bd
000002d0: 9a67 81bd f9a7 97bc 8568 20bd 052a 9ebb
000002e0: 2c1e 00bd 92d0 04bc 043c 36bc 1b87 e23c
000002f0: dd3b a8bb b23f aa3b 1000 46bc 919f 0b3d
00000300: 4573 5abc e0f2 1f3c 969b 2b3c 2a8d ae3c
00000310: 0211 02bd 5756 043d 080a 35bd c531 41bc
0.014473592 0.017908832 -0.013645021 -0.010499165 0.0069036554 -0.0014809131 -0.010124441 -0.0014569318
-0.053811945 -0.02511941 -0.032131452 -0.053134847 -0.044129163 -0.02560122 -0.023849832 0.04428796
-0.0019587795 -0.035652038 -0.03922707 0.040849112 0.0045234878 -0.021835653 0.03688346 -0.036590848
0.005417237 -0.011945834 -0.03692043 -0.0068144905 -0.027424889 0.002441274 -0.028100252 -0.027185714
-0.046717595 0.010475738 -0.049446434 -0.05281932 -0.019395655 -0.022608446 -0.06386123 0.014801747
-0.04071671 -0.045567926 0.010808733 -0.019661855 0.0050094584 -0.04265928 -1.1458227e-05 -0.03503027
-0.016536515 0.017184136 -0.041426722 -0.015012945 -0.048146464 -0.0020579211 -0.0047875284 0.019729596
0.0061115124 -0.04054555 -0.0044309106 0.02357302 -0.07103471 -0.017270314 -0.040317103 -0.02333888
0.022336897 0.022072574 -0.06318331 -0.023975473 -0.028411645 -0.056222077 -0.0025133723 -0.03737726
-0.026840778 -0.01763054 0.026868222 -0.036447898 0.011849788 -0.001211313 0.020381285 0.029381705
0.0090440065 0.0038659133 -0.034253225 -0.0382522 -0.012897593 -0.037542615 -0.04433694 -0.023797877
-0.041301277 -0.014191329 -0.04529512 0.025191722 -0.03561422 0.015218448 0.036566332 -0.014447092
-0.0028789921 -0.05018702 -0.018665412 -0.025564076 0.008724902 -0.031673215 -0.018184654 0.015480924
0.023842124 -0.010944228 -0.035705607 -0.02067504 0.039575733 -0.03315838 -0.0072989194 -0.06591231
-0.00901252 -0.030708307 -0.06794172 0.019363197 -0.029608166 -0.011055594 -0.01657074 0.010844271
0.038405962 -0.016976504 -0.0005813846 -0.08820229 0.022463014 0.0059168614 0.030147526 -0.00857881
-0.012444599 0.011179405 -0.03249789 0.014006057 0.02651298 -0.06132725 0.012799028 -0.03274809
-0.060943615 0.002781332 -0.0073506627 0.00011782612 -0.02333169 -0.049317654 -0.053555705 0.029737663
0.043577928 0.01742928 0.027147869 -0.049134072 -0.020995338 0.0033693784 -0.039250188 -0.023703018
0.0014167457 -0.022148702 -0.014245633 0.0032934516 -0.045741957 0.023204383 -0.018726628 -0.018321224
0.0067657405 -0.011976466 0.0031369436 -0.010631843 -0.00298528 -0.043455295 -0.028945789 -0.03963333
-0.0064622355 -0.037684772 0.015515848 -0.006250001 0.027959177 -0.0450278 0.008888656 0.009020968
-0.042433355 0.0036549843 -0.026560362 -0.039279703 -0.063185886 -0.018512713 -0.039162178 -0.0048267865
-0.031278774 -0.008106368 -0.011122707 0.027652314 -0.0051340894 0.0051955814 -0.012084976 0.03408772
-0.013333146 0.009762496 0.010474106 0.021307547 -0.0317545 0.032308903 -0.04419902 -0.011791651

module.dense.3.weight f4 [100, 200]
00000000: dcf8 2dbd c91c 953c 8a91 293c 9be8 f0bc
00000010: 2889 44bd f633 5d3d 9b95 583d afba cb3d
00000020: 145a f83c 16cb 7dbb 64a1 49bb 1993 0cbd
00000030: 43da 85bd 7c03 4a3b 0ce2 cc3d 67b6 7abd
00000040: 495e c0bd 3a62 5d3d a5a5 41bd e98a 773d
00000050: d32d 85bd 9424 9a3c e6ab 0d3b 77a9 803d
00000060: 380d 5ebc b565 1a3d f2cb b4bc 38f5 17bd
00000070: 6d14 393d 9bd8 aa3c b8f7 90bd dacc bdbc
00000080: 2cc5 c6bc 5b99 6cbc 2c78 0cbd 179e 0ebb
00000090: 3dee 70bc 6e60 d4bc e6d8 70bd 3cfa a7bc
000000a0: 50ea cf3b 7766 3b3c 5e09 3dbd fd6e e7bc
000000b0: 57b7 293e 5984 d0bb 976e a03b edd7 9bbc
000000c0: 3012 30bd 16aa a8bc b718 22bb 8fb0 e1bb
000000d0: 4993 e8bd 99d7 fe3c 84e2 883d 7919 a53d
000000e0: f51a 393d 5b0a a93d e484 573c 952b 05bd
000000f0: 76ed e4bc 866f 10bd 6a45 0a3e f1ab 323d
00000100: 3360 be3d 60d2 a23c e197 2b3d 4e7f 46bd
00000110: f829 023e 6e8e 4fbd da79 793d c3bb 78bd
00000120: 6e69 aabd d025 663b c475 4cbc 8f26 4bbc
00000130: e63e 10bd f266 a73c e6f7 6ebd 04c1 e9bc
00000140: d374 25bc aa70 99bd 117b 47bb 8d6a 503d
00000150: 603e 84bd d147 d13c 382f a33c 5d7e 27bd
00000160: 7dc3 9fbb 9ac1 6d3d 29e1 1dbd 541e 6a3d
00000170: 765a 90bd d657 973c c316 903d 775f b03c
00000180: 1bb3 413d 7f32 293d 4e1c 353d 043b 14bd
00000190: 81df d43c ed40 b9bc 59b2 3f3b 6bd5 cdbc
000001a0: 4fdc f8bc 6b5c e6bc bdce e5bc 7165 a33a
000001b0: 22d8 b03d a1e6 79bd 4856 18bb 8ce3 80bb
000001c0: dc23 17bd 6260 6cbd d21d b83d 22db 27bd
000001d0: c9f1 c8bc 1a33 d53c a38a 4ebc 9225 9a3d
000001e0: 00b5 b63a a204 9c3d 5779 20bd 6845 0a3c
000001f0: 89d0 ca3c 8cb3 4c3d a7e7 d0bd e337 b2bc
00000200: ca2d a63c 93fa 3dbd d403 af3c bae0 3abd
00000210: 55cb 4bbd 5878 403d 7e23 793d c4a6 e63b
00000220: c5f7 92bc 5bab 913c f23a 9fbd 15ed 73bd
00000230: c03e c33d 4876 103d 0ea8 5e3d dc31 493d
00000240: 7c7d 2b3d 8cd3 7dbc 57e0 c6bd 140e 92bd
00000250: 1371 853c 841a 443d 4103 b6bd 3924 60bd
00000260: 4bd7 833d b26a 8b3c 8001 83bc c32e 523d
00000270: 288a 49bd 14b6 debd 5831 58bd e8d5 49bd
00000280: cb08 5fbc 34f8 af3c dd1c 8fbd 6bf0 053d
00000290: df03 dbbc ac6f 633d 8050 7abc d530 b23c
000002a0: edab cfbc 8648 3ebd 10f2 59bd 39d2 c13c
000002b0: 4f2d c23d 4e59 2e3d 2c00 1cbd 7938 46bd
000002c0: 093e bbbc a130 90bd 18e4 9bbb d60b 5b3c
000002d0: 28d6 d8bd d5e4 f9bc b820 98bd c03d af3d
000002e0: 2fe8 ec3d ebf6 e1bb 8b45 cdbb cdcd 8f3d
000002f0: 0f7b 84bd 83e6 c03c f264 983d 0e60 ac3d
00000300: e8e1 473d 46e8 da3c 60d1 6bbc 898a 3ebd
00000310: aea0 6c3b 5fc5 f0bb 9ef0 81ba dd2d 213c
00000320: bd78 013e 69ec 22bd daa5 09bd 6ea2 833d
00000330: b26d 5c3d f303 81bb 3d03 bebd 67da 593d
00000340: b7ba 56bd a84c 1c3c 3f5c 40bb 6fe0 de3c
00000350: f8f5 1c3d 16f7 f4bc 7206 e13c a052 1abc
00000360: e609 93bd 8194 74ba fdb2 2cbc 9951 25bd
00000370: 671b cd3b 9bdf 3b3d 731e fdbc f183 85bb
00000380: 2a16 a93d a0d1 63bd 4229 6e3c fe18 e93c
00000390: f96b 5cbd b3cd 8fbc 9ba8 2e3d c3e8 eebc
000003a0: f087 ffbc cb24 3abd f8e2 823c 27fe 9e3d
000003b0: 9a3d c2bd 9502 36bd e43d bc3d c6aa 893b
000003c0: e060 6ebc 3ebc 8bbd 58c2 2dbd 5fe1 c6bc
000003d0: ed5a 8ebd 5d31 46bd 090b df39 90ab e73c
000003e0: ca09 673d bd3c 063d f017 063d 14f8 543d
000003f0: 1fb8 293d a892 70bb e9ab 51bd 57e1 23bd
-0.04247366 0.018202202 0.010349641 -0.02940779 -0.047982365 0.054004632 0.05287705 0.099477164
0.03031639 -0.0038725785 -0.0030766362 -0.03431997 -0.06535771 0.003082483 0.100040525 -0.06120911
-0.093929835 0.054048754 -0.04727711 0.06043521 -0.06502881 0.01881627 0.0021617352 0.06282323
-0.013552956 0.03769465 -0.022069905 -0.037099093 0.045185495 0.020855239 -0.070784986 -0.02316897
-0.02426394 -0.01444086 -0.034294292 -0.002176171 -0.014705238 -0.025924888 -0.0588006 -0.020505063
0.006345071 0.011438004 -0.04615151 -0.028251166 0.16573845 -0.0063634333 0.004895996 -0.01902386
-0.042986095 -0.020588916 -0.002473397 -0.0068875025 -0.113562174 0.031108664 0.066838294 0.08061499
0.045191724 0.08253928 0.013154242 -0.032512266 -0.027945261 -0.035262607 0.13503042 0.043621007
0.09295692 0.019875705 0.04189289 -0.04846125 0.12711322 -0.05067294 0.060907222 -0.06072594
-0.0832089 0.0035117753 -0.012479249 -0.01239933 -0.035216235 0.02043483 -0.058341883 -0.02853442
-0.010098654 -0.07492192 -0.0030438344 0.050882865 -0.064572096 0.02554694 0.019919977 -0.040891994
-0.004875599 0.05804596 -0.038544808 0.05715783 -0.07048504 0.0184745 0.070355915 0.021529896
0.04728995 0.041307922 0.044216447 -0.036189094 0.025985481 -0.022613967 0.002925059 -0.02512618
-0.030378489 -0.02812024 -0.028052682 0.0012466145 0.08634974 -0.06101096 -0.0023244787 -0.0039333757
-0.036899433 -0.057709105 0.08990063 -0.040980466 -0.024529355 0.026025344 -0.012606296 0.07526697
0.001393944 0.07618071 -0.03917822 0.008439399 0.02475764 0.049975917 -0.10200434 -0.021755164
0.020285506 -0.046381544 0.02136413 -0.045624472 -0.04975446 0.04698977 0.060824864 0.007038923
-0.017940411 0.017781904 -0.07774915 -0.05955227 0.09533453 0.03526905 0.05435949 0.049119815
0.041867718 -0.015492331 -0.09710758 -0.071315914 0.01628927 0.04787685 -0.088873394 -0.054722045
0.06437548 0.01701865 -0.015991926 0.051314127 -0.04920402 -0.108745724 -0.052781433 -0.049276263
-0.013612936 0.021480657 -0.06987927 0.032699984 -0.026735244 0.05552642 -0.015277982 0.0217518
-0.025350535 -0.046455882 -0.053209364 0.023659812 0.09481298 0.042565636 -0.0380861 -0.0483937
-0.02285673 -0.07040525 -0.0047574155 0.013369521 -0.10587722 -0.030504623 -0.074281156 0.085567
0.11567723 -0.00689589 -0.0062643937 0.07021675 -0.06468784 0.023547417 0.07441129 0.084167585
0.048799425 0.026722085 -0.014393181 -0.046518836 0.0036106515 -0.007347747 -0.0009913628 0.009837595
0.12643714 -0.03977624 -0.033605434 0.064274654 0.05381555 -0.0039372384 -0.092779614 0.0531868
-0.05242416 0.009539761 -0.0029351858 0.027206628 0.03832051 -0.029902976 0.027468894 -0.009419113
-0.07179622 -0.000932999 -0.010540721 -0.04036102 0.00625937 0.045867544 -0.030898308 -0.0040745665
0.082561806 -0.055619836 0.014536204 0.0284543 -0.05381391 -0.01755414 0.042641263 -0.029163724
-0.03119275 -0.045445245 0.015977368 0.077633195 -0.09484406 -0.044436056 0.09191492 0.004201266
-0.014549464 -0.06823014 -0.04242167 -0.024277387 -0.069509365 -0.04838692 0.00042542096 0.02828005
0.05640582 0.03277277 0.032737672 0.0519944 0.041435357 -0.0036708508 -0.051189337 -0.040009823

module.dense.3.bias f4 [100]
00000000: 6c6e 333d 729c c03c b22d 7c3c d414 6dbd
00000010: 1220 98bc 9e96 5e3d 384b da3c 84b7 153d
00000020: 1a8b 8e3d ad1f 5e3c d678 853d c85f cbbc
00000030: 3533 d0bc 8542 8d3d 665e 1c3d cfe6 103d
00000040: a0b3 8c3d a93a 9839 51fb d7bd 8ab4 05bd
00000050: 30e6 643d e99c ec3c 2aa1 f6bc 55fc 013d
00000060: 8640 0c3d 2ad2 21bd e850 213d fcbc c53d
00000070: a59f a83c bebc 2d3d f936 983d 870e 54bd
00000080: 75fa 653d f09c 313d 8e32 c23c d72e 5b3d
00000090: 0c17 813d 9246 223d ef9d c1bd fba6 fa3c
000000a0: 35b0 613d 261c 5a3c 6c23 6d3d 738a 413d
000000b0: ee37 d93c e16d b43c e767 7e3d 06c7 8b3d
000000c0: f142 0d3d a309 d13c 0ce3 273d 2c39 693c
000000d0: fa52 403d 5cd4 0c3d 98f4 6a3d 0751 993d
000000e0: 7e61 413d c0ad b23c ada0 463d 28f3 503d
000000f0: dd0e a13d a829 353d 1b6d a63d 1a57 923d
00000100: e9bb 0f3d 4581 173d 8020 433c 186a 313d
00000110: d70c 1f3d 479f 873d 462a 303d ef3b 233d
00000120: a702 fc3c d770 2d3c 80bd a23c 7393 183d
00000130: 72e0 563c 059a afbc a572 f33c fddf 263d
00000140: 1650 a73d 21d5 973c 6683 a33c ccb1 c73c
00000150: 8813 563d e1be e93c 40d1 18be 425b 6d3b
00000160: 95fd 403d de1d 2c3d 1a28 843d b0d9 5f3d
00000170: 1a07 013d 7a96 883d df77 a93d 0770 b83d
00000180: 9d3f 413d bced 453d 7159 553d dced 773d
0.04380648 0.023512099 0.015391754 -0.05788119 -0.01856998 0.05434286 0.026647195 0.036551967
0.06960125 0.013557357 0.06517188 -0.024825945 -0.025415042 0.06897453 0.038175963 0.035376366
0.06870198 0.00029035404 -0.10545982 -0.03264288 0.055883586 0.028883414 -0.030106146 0.031734783
0.03424122 -0.03950707 0.0393838 0.096551865 0.020583937 0.042416327 0.0743236 -0.051771667
0.056147058 0.043362558 0.023705747 0.053511467 0.06303224 0.039618082 -0.094539516 0.0305972
0.055099685 0.013312375 0.05789511 0.047251176 0.026515927 0.02202505 0.062110808 0.0682507
0.03448767 0.02551729 0.040988013 0.014234822 0.046954133 0.03438221 0.05736217 0.07486158
0.047212116 0.021811366 0.048493076 0.051013142 0.07864163 0.04422918 0.08126279 0.071455196
0.035091314 0.036988515 0.011909604 0.04331407 0.038830604 0.066221766 0.043009065 0.03985208
0.030762983 0.010585985 0.019865751 0.037249994 0.013115035 -0.021435747 0.029717753 0.040740956
0.08169572 0.018534245 0.019960117 0.024376772 0.05226472 0.028533401 -0.14923573 0.0036217724
0.047116835 0.04202067 0.06452961 0.054650962 0.031500913 0.06669326 0.08274817 0.090057425
0.047179807 0.048322424 0.05208725 0.060529575

module.dense.6.weight f4 [50, 100]
00000000: 95aa eabd 9c40 6e3c 3f2f 0cbe a4d9 84bd
00000010: a3fe b53c d98e df3d 7752 1a3d 86e7 db3d
00000020: b53d c5bc 9156 2cbe 95e3 3abd 4e09 ebbd
00000030: 61c9 ef3d 1ed4 5abd 1568 793a 8db3 c8bc
00000040: 8f46 003d 360b b23d e7c4 a6bc 217b 2fbd
00000050: 91c6 1dbe 3946 16be c6a1 b23c f76b ebbd
00000060: 0c54 c13c 072a 27bd 1e80 1c3d 4890 66bc
00000070: c006 fbbd 4150 74bd 1e1e 483d 3abc b0bc
00000080: 6b22 663d 95fb d9bc 8e7b 60bd 4248 72bc
00000090: 0089 ff3a 0e92 c6bc 1d08 f23b 9a17 04bd
000000a0: 6ddb 17be 5754 733b 38e8 1e3d 23c7 53bc
000000b0: 00f1 38bd f928 db3c 1ae8 953d c6b1 7fbd
000000c0: 2507 bd3c 764c 9c3c 02ed f2bc cc44 b63d
000000d0: ace4 50bc 3cb1 d7bc a65e 9939 2b91 3a3c
000000e0: d446 b43b 55b3 6bbe 8f34 5abd 7096 493a
000000f0: 4364 1dbc da9d a9bc 0258 923d 5bcc 22bd
00000100: 8f2e 00bc 9d59 17be 256f 47bd f690 fbbd
00000110: dc05 843c b9f1 303c bce3 b2bc 3666 213d
00000120: dd05 90bd 39e2 21be f1a0 a3bd 3dc4 463c
00000130: 9d39 4cbe 159c e53d ada0 ea3b ea49 09bd
00000140: b459 40bc cfb4 33be adf0 60be 8831 d6bb
00000150: ec5b 4cbd 9871 1cbe b9a2 86bd 0957 5dbe
00000160: faa1 b0bc f159 52be fe76 bebb a521 053d
00000170: b74f 03be 8df8 4bbb fc5c 283b ea69 62bd
00000180: b1ea a4bd 2658 53bb 45e1 d2bd 5169 e6bd
00000190: 70f5 10be 510b 223d 9738 c8bd d2a1 99bd
000001a0: 1ad9 06bd d559 d63d 73d3 03bd 977f a43b
000001b0: 9ed9 1dbd 2ef6 0eb9 b849 1a3c 20dc 993d
000001c0: 4f98 cdbc 9103 5cbb d8ae b0bc d1a8 edbc
000001d0: f6ab 423d d0b4 80bc a9cd 1cbd 7117 753b
000001e0: 4f24 99bd bdca 46be a71f aa3d 84c8 4cbc
000001f0: 0263 b33c b2f9 acbd cd9f ebb8 1eaf babd
00000200: daf0 8fbd db4c c5bd dafe c53d 3e17 20bc
00000210: 7eb2 203d e299 bdbc bc2d c5bd 4271 3c3c
00000220: 6ecc 5ebd e951 f0bd 33ff ad3d 5b68 2ebb
00000230: 2b33 98bd 6fd1 14bd 7176 c23d 5a5d 92bc
00000240: b8b7 1dbe 8823 31bd 6319 233d 02f3 06bd
00000250: 8b91 bfbc 790c c7b8 4cbc b43c cf67 07bc
00000260: 1889 6e3d b270 153c f435 12bd 806c 5abc
00000270: 8baf 663d 7c1e 1cbe fadc 1ebd 9103 8dbc
00000280: d88a ad3d 6bff 803c 73ec 17bd 310c ae3d
00000290: 1b4c 183d fc96 04be a50e 8bbd e1e0 87bd
000002a0: ee5e 27bd d429 19bd f7ed 60bc b8ef 2ebc
000002b0: eff9 febd 7c89 17be 6d90 e3bc 1e93 bc3c
000002c0: 4a98 10be 4dc0 3cbd 226f 8c3c e60b 993a
000002d0: f556 f63c 2785 45be 15b3 28be a6e4 4dbc
000002e0: b1eb 5abd 5b05 55be 260f 74bd bdef 18be
000002f0: 5d48 353d 52a9 0dbe 8305 3cbc 23e2 57bc
00000300: dc1b e4bd ef3e 883d d01d 3f3c fd4e 7c3d
00000310: 6017 9cbd 0495 433c 7029 05bd 1a09 bcbc
00000320: c19f 1fbe b151 893c 4c51 ebbd 8c12 bebd
00000330: 3b74 f63c 6537 213d 5a87 e73d 3a58 733d
00000340: 983b 4d3d ba0e c4bd cbb0 ab3c 7088 cdbd
00000350: 1922 af3d 91cf 253d 00cb c3bc 6423 2d3d
00000360: f1e9 923b 45a3 433d fe30 c53d 0954 ba3c
00000370: 60be 27bd 6f92 afbd ab6e 113d dbf0 c43c
00000380: 2b61 6d3c ceeb 9abd 78ee 4a3d 1ba1 8d3c
00000390: 258f efbd f740 f2bd 1cf2 3c3d 1c00 f6bc
000003a0: e2bf 85bc 2f63 5dbc 1201 a1bd d270 01bd
000003b0: 4aa1 633d 637f 0cbe 25bf 59bd 8943 0f3d
000003c0: f879 d7bd 0566 af3a 98ca 8a3c d0ba dfbc
000003d0: bcae ebbc 259b 443d 7fc8 863d 1c66 c3bd
000003e0: f5f6 c7bc 7db5 533d 5ac3 313b c1b4 ecbc
000003f0: 5558 163d 12df 36bd c258 0f3a 1299 003d
-0.11458317 0.014541771 -0.13689898 -0.06486824 0.022216147 0.10915918 0.0376763 0.10737519
-0.024077276 -0.16829897 -0.045627195 -0.11476384 0.11708332 -0.053424947 0.00095141056 -0.024499679
0.03131729 0.086935446 -0.020357562 -0.042842034 -0.15407778 -0.14675225 0.021805655 -0.11495202
0.023599647 -0.040811565 0.03820812 -0.014072485 -0.12257147 -0.05964685 0.048856847 -0.021574128
0.056185167 -0.026609221 -0.05480533 -0.014787735 0.0019495785 -0.024239566 0.007386221 -0.03224907
-0.14829798 0.0037129128 0.03879568 -0.012925896 -0.04515171 0.026752936 0.073196605 -0.062425397
0.023074696 0.019079428 -0.02965403 0.08899841 -0.012749832 -0.02632963 0.00029252953 0.01138715
0.0055016074 -0.23017628 -0.05327278 0.00076899584 -0.009606424 -0.020705152 0.071456924 -0.03974567
-0.0078236 -0.14780279 -0.04868998 -0.122835085 0.016116075 0.010799819 -0.021837108 0.039404117
-0.07032368 -0.15808953 -0.079896815 0.012131748 -0.19943853 0.11211411 0.0071602673 -0.033517756
-0.011740137 -0.17549442 -0.2196681 -0.0065366663 -0.04989235 -0.15277708 -0.06574006 -0.21615233
-0.021561611 -0.20542122 -0.005812525 0.03250279 -0.12823378 -0.003112349 0.0025690189 -0.05527679
-0.08052576 -0.0032248585 -0.10296873 -0.11250556 -0.14156127 0.039561573 -0.09776419 -0.07501568
-0.032921888 0.10466353 -0.032184076 0.0050200927 -0.038537614 -0.00013633884 0.00941699 0.07512689
-0.02509704 -0.0033571462 -0.021567747 -0.029011162 0.047527276 -0.015711218 -0.03828207 0.0037398005
-0.074776284 -0.19413276 0.083068185 -0.0124989785 0.021897797 -0.08446063 -0.000112354384 -0.09115432
-0.07028361 -0.096338 0.0966775 -0.009771166 0.039232723 -0.023144666 -0.09627864 0.011501612
-0.054394178 -0.11734373 0.08495941 -0.0026612494 -0.074316345 -0.036332544 0.09495247 -0.01786678
-0.15402114 -0.043246776 0.039819133 -0.032946594 -0.02338483 -9.491383e-05 0.022062443 -0.008264496
0.05823621 0.009121107 -0.035695985 -0.0133315325 0.056319755 -0.15246004 -0.03878496 -0.017213615
0.08473748 0.015746793 -0.03709073 0.08498419 0.037181955 -0.12948221 -0.067899026 -0.06634689
-0.040862016 -0.037393406 -0.01372861 -0.010677271 -0.12450015 -0.1479854 -0.027778829 0.02301937
-0.14120594 -0.04608183 0.017142836 0.001167652 0.030070761 -0.19289075 -0.16474564 -0.012566721
-0.05344743 -0.20802824 -0.05958476 -0.14935203 0.044258464 -0.13834122 -0.0114759235 -0.013176474
-0.11138126 0.06652629 0.011664823 0.061598767 -0.07621646 0.011937384 -0.03251022 -0.022953559
-0.15588285 0.016762586 -0.114901155 -0.09280881 0.03008472 0.03935947 0.11305113 0.05941031
0.05010566 -0.09573121 0.020958325 -0.10035789 0.085514255 0.040481154 -0.023900509 0.04227008
0.0044834544 0.047763128 0.09628485 0.02274515 -0.04095304 -0.08572852 0.03550593 0.02404063
0.014488499 -0.075645074 0.049543828 0.017288735 -0.116972245 -0.11828797 0.04612933 -0.030029349
-0.016326848 -0.013512417 -0.07861532 -0.031601734 0.05557374 -0.13720469 -0.053160805 0.034976516
-0.105213106 0.0013381845 0.016942307 -0.027310759 -0.028769843 0.04799952 0.0658121 -0.0954096
-0.02440975 0.051686753 0.0027124495 -0.028894784 0.036705334 -0.04464633 0.0005468243 0.03139598

module.dense.6.bias f4 [50]
00000000: 64d0 443e aab4 0c3e d911 093e dcee fe3d
00000010: 3241 3e3e 809d 103e d03c 4a3e cb9f 263e
00000020: 9a61 0e3e 854e 323e bb8b df3d f06b 493e
00000030: f5c4 473e bb27 0a3e d348 ee3d c7c7 373e
00000040: e086 2f3e 2961 593e 847b 6b3e f166 323e
00000050: 5f31 213e 1d01 4d3e ce66 103e 85cf 263e
00000060: 6bb6 3f3e 9980 2b3e 0edc fc3d 4f17 333e
00000070: eee6 563e d451 f03d 2291 283e 4773 583e
00000080: 8cdd 2e3e 047e 273e 0ab7 533e da17 503e
00000090: 8710 683e 2f62 3d3e 13d9 1a3e f4f6 3a3e
000000a0: 0c33 603e 65d1 163e 6c46 1c3e 7726 ef3d
000000b0: c697 193e 8a30 343e 3145 c83d d440 283e
000000c0: 15f6 1d3e 88c7 3b3e
0.1922012 0.13740793 0.13385715 0.124479026 0.18579558 0.14122581 0.1974976 0.16271894
0.1390442 0.17412765 0.10915323 0.19670081 0.19508727 0.13491718 0.11634984 0.17947303
0.17141294 0.2122847 0.22996336 0.17422082 0.1574149 0.20019956 0.14101717 0.162901
0.1872193 0.16748275 0.123466596 0.1748936 0.2098653 0.117343575 0.16461614 0.21137725
0.17076701 0.16356665 0.20675293 0.20321599 0.22662555 0.18494485 0.1512187 0.18258268
0.21894473 0.14728315 0.15261239 0.116772585 0.14999303 0.17596641 0.09778822 0.1643098
0.15425904 0.18337834

module.dense.9.weight f4 [1, 50]
00000000: 0edd d4bd ae9d d5bd b00a 98bd f25e 90bd
00000010: 3821 163e ef01 dfbd 6cf2 df3d 833f 0c3e
00000020: 3dc6 9bbd 689d d3bd abd8 d7bd 9ba8 373e
00000030: d29a 333e a0c9 81bd 6020 d3bd 9e9f 1b3e
00000040: aa14 343e 47ab 203e 812d 0a3e 77f6 243e
00000050: 506a 203e 5914 103e 5013 ebbd 692b 81bd
00000060: 89f4 493e 1dc0 b3bd a04e c0bd 95fb 433e
00000070: b049 b3bd f704 bbbd b852 d1bd 150b 8abd
00000080: 6722 8bbd b52e 373e 1d64 1f3e 864b 303e
00000090: 2909 1a3e 97ff 91bd 38dc 85bd c7f2 193e
000000a0: f449 1a3e 7fb9 9bbd da5b 523e 8676 88bd
000000b0: 4454 aabd ed5b 403e ed3a a7bd a654 f5bd
000000c0: 68dc 7fbd c98b 253e
-0.10393725 -0.10430466 -0.074239135 -0.070493594 0.1466111 -0.10889041 0.1093491 0.13696103
-0.0760617 -0.10332757 -0.10539373 0.17935412 0.17539528 -0.06337285 -0.103089094 0.15197608
0.17586008 0.15690337 0.13493921 0.16109644 0.15665555 0.14070262 -0.11478293 -0.06307108
0.19722189 -0.08776877 -0.093899965 0.1913894 -0.08754289 -0.09131806 -0.102208555 -0.06740395
-0.06793671 0.17888911 0.15565534 0.1721631 0.15042557 -0.07128828 -0.06536144 0.15034018
0.15067273 -0.0760374 0.20542851 -0.066632316 -0.08316854 0.18785067 -0.08165536 -0.11979036
-0.062466055 0.16166605
